…
      sampler {
        min_scale: 0.3
        max_scale: 1
        min_aspect_ratio: 0.5
        max_aspect_ratio: 2
      }
      sample_constraint {
        min_jaccard_overlap: 0.9
      }
      max_sample: 1
      max_trials: 50
    }
    batch_sampler {
      sampler {
        min_scale: 0.3
        max_scale: 1
        min_aspect_ratio: 0.5
        max_aspect_ratio: 2
      }
      sample_constraint {
        max_jaccard_overlap: 1
      }
      max_sample: 1
      max_trials: 50
    }
    label_map_file: "data/VOC0712/labelmap_voc.prototxt"
  }
}
layer {
  name: "conv1_1"
  type: "Convolution"
  bottom: "data"
  top: "conv1_1"
  param {
    lr_mult: 0
    decay_mult: 0
  }
  param {
    lr_mult: 0
    decay_mult: 0
  }
  convolution_param {
    num_output: 64
    pad: 1
    kernel_size: 3
    weight_filler {
      type: "xavier"
    }
    bias_filler {
      type: "constant"
      value: 0
    }
  }
}
layer {
  name: "relu1_1"
  type: "ReLU"
  bottom: "conv1_1"
  top: "conv1_1"
}
layer {
  name: "conv1_2"
  type: "Convolution"
  bottom: "conv1_1"
  top: "conv1_2"
  param {
    lr_mult: 0
    decay_mult: 0
  }
  param {
    lr_mult: 0
    decay_mult: 0
  }
  convolution_param {
    num_output: 64
    pad: 1
    kernel_size: 3
    weight_filler {
      type: "xavier"
    }
    bias_filler {
      type: "constant"
      value: 0
    }
  }
}
layer {
  name: "relu1_2"
  type: "ReLU"
  bottom: "conv1_2"
  top: "conv1_2"
}
layer {
  name: "pool1"
  type: "Pooling"
  bottom: "conv1_2"
  top: "pool1"
  pooling_param {
    pool: MAX
    kernel_size: 2
    stride: 2
  }
}
layer {
  name: "conv2_1"
  type: "Convolution"
  bottom: "pool1"
  top: "conv2_1"
  param {
    lr_mult: 0
    decay_mult: 0
  }
  param {
    lr_mult: 0
    decay_mult: 0
  }
  convolution_param {
    num_output: 128
    pad: 1
    kernel_size: 3
    weight_filler {
      type: "xavier"
    }
    bias_filler {
      type: "constant"
      value: 0
    }
  }
}
layer {
  name: "relu2_1"
  type: "ReLU"
  bottom: "conv2_1"
  top: "conv2_1"
}
layer {
  name: "conv2_2"
  type: "Convolution"
  bottom: "conv2_1"
  top: "conv2_2"
  param {
    lr_mult: 0
    decay_mult: 0
  }
  param {
    lr_mult: 0
    decay_mult: 0
  }
  convolution_param {
    num_output: 128
    pad: 1
    kernel_size: 3
    weight_filler {
      type: "xavier"
    }
    bias_filler {
      type: "constant"
      value: 0
    }
  }
}
layer {
  name: "relu2_2"
  type: "ReLU"
  bottom: "conv2_2"
  top: "conv2_2"
}
layer {
  name: "pool2"
  type: "Pooling"
  bottom: "conv2_2"
  top: "pool2"
  pooling_param {
    pool: MAX
    kernel_size: 2
    stride: 2
  }
}
layer {
  name: "conv3_1"
  type: "Convolution"
  bottom: "pool2"
  top: "conv3_1"
  param {
    lr_mult: 1
    decay_mult: 1
  }
  param {
    lr_mult: 2
    decay_mult: 0
  }
  convolution_param {
    num_output: 256
    pad: 1
    kernel_size: 3
    weight_filler {
      type: "xavier"
    }
    bias_filler {
      type: "constant"
      value: 0
    }
  }
}
layer {
  name: "relu3_1"
  type: "ReLU"
  bottom: "conv3_1"
  top: "conv3_1"
}
layer {
  name: "conv3_2"
  type: "Convolution"
  bottom: "conv3_1"
  top: "conv3_2"
  param {
    lr_mult: 1
    decay_mult: 1
  }
  param {
    lr_mult: 2
    decay_mult: 0
  }
  convolution_param {
    num_output: 256
    pad: 1
    kernel_size: 3
    weight_filler {
      type: "xavier"
    }
    bias_filler {
      type: "constant"
      value: 0
    }
  }
}
layer {
  name: "relu3_2"
  type: "ReLU"
  bottom: "conv3_2"
  top: "conv3_2"
}
layer {
  name: "conv3_3"
  type: "Convolution"
  bottom: "conv3_2"
  top: "conv3_3"
  param {
    lr_mult: 1
    decay_mult: 1
  }
  param {
    lr_mult: 2
    decay_mult: 0
  }
  convolution_param {
    num_output: 256
    pad: 1
    kernel_size: 3
    weight_filler {
      type: "xavier"
    }
    bias_filler {
      type: "constant"
      value: 0
    }
  }
}
layer {
  name: "relu3_3"
  type: "ReLU"
  bottom: "conv3_3"
  top: "conv3_3"
}
layer {
  name: "pool3"
  type: "Pooling"
  bottom: "conv3_3"
  top: "pool3"
  pooling_param {
    pool: MAX
    kernel_size: 2
    stride: 2
  }
}
layer {
  name: "conv4_1"
  type: "Convolution"
  bottom: "pool3"
  top: "conv4_1"
  param {
    lr_mult: 1
    decay_mult: 1
  }
  param {
    lr_mult: 2
    decay_mult: 0
  }
  convolution_param {
    num_output: 512
    pad: 1
    kernel_size: 3
    weight_filler {
      type: "xavier"
    }
    bias_filler {
      type: "constant"
      value: 0
    }
  }
}
layer {
  name: "relu4_1"
  type: "ReLU"
  bottom: "conv4_1"
  top: "conv4_1"
}
layer {
  name: "conv4_2"
  type: "Convolution"
  bottom: "conv4_1"
  top: "conv4_2"
  param {
    lr_mult: 1
    decay_mult: 1
  }
  param {
    lr_mult: 2
    decay_mult: 0
  }
  convolution_param {
    num_output: 512
    pad: 1
    kernel_size: 3
    weight_filler {
      type: "xavier"
    }
    bias_filler {
      type: "constant"
      value: 0
    }
  }
}
layer {
  name: "relu4_2"
  type: "ReLU"
  bottom: "conv4_2"
  top: "conv4_2"
}
layer {
  name: "conv4_3"
  type: "Convolution"
  bottom: "conv4_2"
  top: "conv4_3"
  param {
    lr_mult: 1
    decay_mult: 1
  }
  param {
    lr_mult: 2
    decay_mult: 0
  }
  convolution_param {
    num_output: 512
    pad: 1
    kernel_size: 3
    weight_filler {
      type: "xavier"
    }
    bias_filler {
      type: "constant"
      value: 0
    }
  }
}
layer {
  name: "relu4_3"
  type: "ReLU"
  bottom: "conv4_3"
  top: "conv4_3"
}
layer {
  name: "pool4"
  type: "Pooling"
  bottom: "conv4_3"
  top: "pool4"
  pooling_param {
    pool: MAX
    kernel_size: 2
    stride: 2
  }
}
layer {
  name: "conv5_1"
  type: "Convolution"
  bottom: "pool4"
  top: "conv5_1"
  param {
    lr_mult: 1
    decay_mult: 1
  }
  param {
    lr_mult: 2
    decay_mult: 0
  }
  convolution_param {
    num_output: 512
    pad: 1
    kernel_size: 3
    weight_filler {
      type: "xavier"
    }
    bias_filler {
      type: "constant"
      value: 0
    }
  }
}
layer {
  name: "relu5_1"
  type: "ReLU"
  bottom: "conv5_1"
  top: "conv5_1"
}
layer {
  name: "conv5_2"
  type: "Convolution"
  bottom: "conv5_1"
  top: "conv5_2"
  param {
    lr_mult: 1
    decay_mult: 1
  }
  param {
    lr_mult: 2
    decay_mult: 0
  }
  convolution_param {
    num_output: 512
    pad: 1
    kernel_size: 3
    weight_filler {
      type: "xavier"
    }
    bias_filler {
      type: "constant"
      value: 0
    }
  }
}
layer {
  name: "relu5_2"
  type: "ReLU"
  bottom: "conv5_2"
  top: "conv5_2"
}
layer {
  name: "conv5_3"
  type: "Convolution"
  bottom: "conv5_2"
  top: "conv5_3"
  param {
    lr_mult: 1
    decay_mult: 1
  }
  param {
    lr_mult: 2
    decay_mult: 0
  }
  convolution_param {
    num_output: 512
    pad: 1
    kernel_size: 3
    weight_filler {
      type: "xavier"
    }
    bias_filler {
      type: "constant"
      value: 0
    }
  }
}
layer {
  name: "relu5_3"
  type: "ReLU"
  bottom: "conv5_3"
  top: "conv5_3"
}
layer {
  name: "pool5"
  type: "Pooling"
  bottom: "conv5_3"
  top: "pool5"
  pooling_param {
    pool: MAX
    kernel_size: 3
    stride: 1
    pad: 1
  }
}
layer {
  name: "fc6"
  type: "Convolution"
  bottom: "pool5"
  top: "fc6"
  param {
    lr_mult: 1
    decay_mult: 1
  }
  param {
    lr_mult: 2
    decay_mult: 0
  }
  convolution_param {
    num_output: 1024
    pad: 6
    kernel_size: 3
    weight_filler {
      type: "xavier"
    }
    bias_filler {
      type: "constant"
      value: 0
    }
    dilation: 6
  }
}
layer {
  name: "relu6"
  type: "ReLU"
  bottom: "fc6"
  top: "fc6"
}
layer {
  name: "fc7"
  type: "Convolution"
  bottom: "fc6"
  top: "fc7"
  param {
    lr_mult: 1
    decay_mult: 1
  }
  param {
    lr_mult: 2
    decay_mult: 0
  }
  convolution_param {
    num_output: 1024
    kernel_size: 1
    weight_filler {
      type: "xavier"
    }
    bias_filler {
      type: "constant"
      value: 0
    }
  }
}
layer {
  name: "relu7"
  type: "ReLU"
  bottom: "fc7"
  top: "fc7"
}
layer {
  name: "conv6_1"
  type: "Convolution"
  bottom: "fc7"
  top: "conv6_1"
  param {
    lr_mult: 1
    decay_mult: 1
  }
  param {
    lr_mult: 2
    decay_mult: 0
  }
  convolution_param {
    num_output: 256
    pad: 0
    kernel_size: 1
    stride: 1
    weight_filler {
      type: "xavier"
    }
    bias_filler {
      type: "constant"
      value: 0
    }
  }
}
layer {
  name: "conv6_1_relu"
  type: "ReLU"
  bottom: "conv6_1"
  top: "conv6_1"
}
layer {
  name: "conv6_2"
  type: "Convolution"
  bottom: "conv6_1"
  top: "conv6_2"
  param {
    lr_mult: 1
    decay_mult: 1
  }
  param {
    lr_mult: 2
    decay_mult: 0
  }
  convolution_param {
    num_output: 512
    pad: 1
    kernel_size: 3
    stride: 2
    weight_filler {
      type: "xavier"
    }
    bias_filler {
      type: "constant"
      value: 0
    }
  }
}
layer {
  name: "conv6_2_relu"
  type: "ReLU"
  bottom: "conv6_2"
  top: "conv6_2"
}
layer {
  name: "conv7_1"
  type: "Convolution"
  bottom: "conv6_2"
  top: "conv7_1"
  param {
    lr_mult: 1
    decay_mult: 1
  }
  param {
    lr_mult: 2
    decay_mult: 0
  }
  convolution_param {
    num_output: 128
    pad: 0
    kernel_size: 1
    stride: 1
    weight_filler {
      type: "xavier"
    }
    bias_filler {
      type: "constant"
      value: 0
    }
  }
}
layer {
  name: "conv7_1_relu"
  type: "ReLU"
  bottom: "conv7_1"
  top: "conv7_1"
}
layer {
  name: "conv7_2"
  type: "Convolution"
  bottom: "conv7_1"
  top: "conv7_2"
  param {
    lr_mult: 1
    decay_mult: 1
  }
  param {
    lr_mult: 2
    decay_mult: 0
  }
  convolution_param {
    num_output: 256
    pad: 1
    kernel_size: 3
    stride: 2
    weight_filler {
      type: "xavier"
    }
    bias_filler {
      type: "constant"
      value: 0
    }
  }
}
layer {
  name: "conv7_2_relu"
  type: "ReLU"
  bottom: "conv7_2"
  top: "conv7_2"
}
layer {
  name: "conv8_1"
  type: "Convolution"
  bottom: "conv7_2"
  top: "conv8_1"
  param {
    lr_mult: 1
    decay_mult: 1
  }
  param {
    lr_mult: 2
    decay_mult: 0
  }
  convolution_param {
    num_output: 128
    pad: 0
    kernel_size: 1
    stride: 1
    weight_filler {
      type: "xavier"
    }
    bias_filler {
      type: "constant"
      value: 0
    }
  }
}
layer {
  name: "conv8_1_relu"
  type: "ReLU"
  bottom: "conv8_1"
  top: "conv8_1"
}
layer {
  name: "conv8_2"
  type: "Convolution"
  bottom: "conv8_1"
  top: "conv8_2"
  param {
    lr_mult: 1
    decay_mult: 1
  }
  param {
    lr_mult: 2
    decay_mult: 0
  }
  convolution_param {
    num_output: 256
    pad: 1
    kernel_size: 3
    stride: 2
    weight_filler {
      type: "xavier"
    }
    bias_filler {
      type: "constant"
      value: 0
    }
  }
}
layer {
  name: "conv8_2_relu"
  type: "ReLU"
  bottom: "conv8_2"
  top: "conv8_2"
}
layer {
  name: "conv9_1"
  type: "Convolution"
  bottom: "conv8_2"
  top: "conv9_1"
  param {
    lr_mult: 1
    decay_mult: 1
  }
  param {
    lr_mult: 2
    decay_mult: 0
  }
  convolution_param {
    num_output: 128
    pad: 0
    kernel_size: 1
    stride: 1
    weight_filler {
      type: "xavier"
    }
    bias_filler {
      type: "constant"
      value: 0
    }
  }
}
layer {
  name: "conv9_1_relu"
  type: "ReLU"
  bottom: "conv9_1"
  top: "conv9_1"
}
layer {
  name: "conv9_2"
  type: "Convolution"
  bottom: "conv9_1"
  top: "conv9_2"
  param {
    lr_mult: 1
    decay_mult: 1
  }
  param {
    lr_mult: 2
    decay_mult: 0
  }
  convolution_param {
    num_output: 256
    pad: 1
    kernel_size: 3
    stride: 2
    weight_filler {
      type: "xavier"
    }
    bias_filler {
      type: "constant"
      value: 0
    }
  }
}
layer {
  name: "conv9_2_relu"
  type: "ReLU"
  bottom: "conv9_2"
  top: "conv9_2"
}
layer {
  name: "pool6"
  type: "Pooling"
  bottom: "conv9_2"
  top: "pool6"
  pooling_param {
    pool: AVE
    global_pooling: true
  }
}
layer {
  name: "conv4_3_norm"
  type: "Normalize"
  bottom: "conv4_3"
  top: "conv4_3_norm"
  norm_param {
    across_spatial: false
    scale_filler {
      type: "constant"
      value: 20
    }
    channel_shared: false
  }
}
layer {
  name: "conv4_3_norm_mbox_loc"
  type: "Convolution"
  bottom: "conv4_3_norm"
  top: "conv4_3_norm_mbox_loc"
  param {
    lr_mult: 1
    decay_mult: 1
  }
  param {
    lr_mult: 2
    decay_mult: 0
  }
  convolution_param {
    num_output: 12
    pad: 1
    kernel_size: 3
    stride: 1
    weight_filler {
      type: "xavier"
    }
    bias_filler {
      type: "constant"
      value: 0
    }
  }
}
layer {
  name: "conv4_3_norm_mbox_loc_perm"
  type: "Permute"
  bottom: "conv4_3_norm_mbox_loc"
  top: "conv4_3_norm_mbox_loc_perm"
  permute_param {
    order: 0
    order: 2
    order: 3
    order: 1
  }
}
layer {
  name: "conv4_3_norm_mbox_loc_flat"
  type: "Flatten"
  bottom: "conv4_3_norm_mbox_loc_perm"
  top: "conv4_3_norm_mbox_loc_flat"
  flatten_param {
    axis: 1
  }
}
layer {
  name: "conv4_3_norm_mbox_conf"
  type: "Convolution"
  bottom: "conv4_3_norm"
  top: "conv4_3_norm_mbox_conf"
  param {
    lr_mult: 1
    decay_mult: 1
  }
  param {
    lr_mult: 2
    decay_mult: 0
  }
  convolution_param {
    num_output: 63
    pad: 1
    kernel_size: 3
    stride: 1
    weight_filler {
      type: "xavier"
    }
    bias_filler {
      type: "constant"
      value: 0
    }
  }
}
layer {
  name: "conv4_3_norm_mbox_conf_perm"
  type: "Permute"
  bottom: "conv4_3_norm_mbox_conf"
  top: "conv4_3_norm_mbox_conf_perm"
  permute_param {
    order: 0
    order: 2
    order: 3
    order: 1
  }
}
layer {
  name: "conv4_3_norm_mbox_conf_flat"
  type: "Flatten"
  bottom: "conv4_3_norm_mbox_conf_perm"
  top: "conv4_3_norm_mbox_conf_flat"
  flatten_param {
    axis: 1
  }
}
layer {
  name: "conv4_3_norm_mbox_priorbox"
  type: "PriorBox"
  bottom: "conv4_3_norm"
  bottom: "data"
  top: "conv4_3_norm_mbox_priorbox"
  prior_box_param {
    min_size: 35
    aspect_ratio: 2
    flip: true
    clip: true
    variance: 0.1
    variance: 0.1
    variance: 0.2
    variance: 0.2
  }
}
layer {
  name: "fc7_mbox_loc"
  type: "Convolution"
  bottom: "fc7"
  top: "fc7_mbox_loc"
  param {
    lr_mult: 1
    decay_mult: 1
  }
  param {
    lr_mult: 2
    decay_mult: 0
  }
  convolution_param {
    num_output: 24
    pad: 1
    kernel_size: 3
    stride: 1
    weight_filler {
      type: "xavier"
    }
    bias_filler {
      type: "constant"
      value: 0
    }
  }
}
layer {
  name: "fc7_mbox_loc_perm"
  type: "Permute"
  bottom: "fc7_mbox_loc"
  top: "fc7_mbox_loc_perm"
  permute_param {
    order: 0
    order: 2
    order: 3
    order: 1
  }
}
layer {
  name: "fc7_mbox_loc_flat"
  type: "Flatten"
  bottom: "fc7_mbox_loc_perm"
  top: "fc7_mbox_loc_flat"
  flatten_param {
    axis: 1
  }
}
layer {
  name: "fc7_mbox_conf"
  type: "Convolution"
  bottom: "fc7"
  top: "fc7_mbox_conf"
  param {
    lr_mult: 1
    decay_mult: 1
  }
  param {
    lr_mult: 2
    decay_mult: 0
  }
  convolution_param {
    num_output: 126
    pad: 1
    kernel_size: 3
    stride: 1
    weight_filler {
      type: "xavier"
    }
    bias_filler {
      type: "constant"
      value: 0
    }
  }
}
layer {
  name: "fc7_mbox_conf_perm"
  type: "Permute"
  bottom: "fc7_mbox_conf"
  top: "fc7_mbox_conf_perm"
  permute_param {
    order: 0
    order: 2
    order: 3
    order: 1
  }
}
layer {
  name: "fc7_mbox_conf_flat"
  type: "Flatten"
  bottom: "fc7_mbox_conf_perm"
  top: "fc7_mbox_conf_flat"
  flatten_param {
    axis: 1
  }
}
layer {
  name: "fc7_mbox_priorbox"
  type: "PriorBox"
  bottom: "fc7"
  bottom: "data"
  top: "fc7_mbox_priorbox"
  prior_box_param {
    min_size: 75
    max_size: 155
    aspect_ratio: 2
    aspect_ratio: 3
    flip: true
    clip: true
    variance: 0.1
    variance: 0.1
    variance: 0.2
    variance: 0.2
  }
}
layer {
  name: "conv6_2_mbox_loc"
  type: "Convolution"
  bottom: "conv6_2"
  top: "conv6_2_mbox_loc"
  param {
    lr_mult: 1
    decay_mult: 1
  }
  param {
    lr_mult: 2
    decay_mult: 0
  }
  convolution_param {
    num_output: 24
    pad: 1
    kernel_size: 3
    stride: 1
    weight_filler {
      type: "xavier"
    }
    bias_filler {
      type: "constant"
      value: 0
    }
  }
}
layer {
  name: "conv6_2_mbox_loc_perm"
  type: "Permute"
  bottom: "conv6_2_mbox_loc"
  top: "conv6_2_mbox_loc_perm"
  permute_param {
    order: 0
    order: 2
    order: 3
    order: 1
  }
}
layer {
  name: "conv6_2_mbox_loc_flat"
  type: "Flatten"
  bottom: "conv6_2_mbox_loc_perm"
  top: "conv6_2_mbox_loc_flat"
  flatten_param {
    axis: 1
  }
}
layer {
  name: "conv6_2_mbox_conf"
  type: "Convolution"
  bottom: "conv6_2"
  top: "conv6_2_mbox_conf"
  param {
    lr_mult: 1
    decay_mult: 1
  }
  param {
    lr_mult: 2
    decay_mult: 0
  }
  convolution_param {
    num_output: 126
    pad: 1
    kernel_size: 3
    stride: 1
    weight_filler {
      type: "xavier"
    }
    bias_filler {
      type: "constant"
      value: 0
    }
  }
}
layer {
  name: "conv6_2_mbox_conf_perm"
  type: "Permute"
  bottom: "conv6_2_mbox_conf"
  top: "conv6_2_mbox_conf_perm"
  permute_param {
    order: 0
    order: 2
    order: 3
    order: 1
  }
}
layer {
  name: "conv6_2_mbox_conf_flat"
  type: "Flatten"
  bottom: "conv6_2_mbox_conf_perm"
  top: "conv6_2_mbox_conf_flat"
  flatten_param {
    axis: 1
  }
}
layer {
  name: "conv6_2_mbox_priorbox"
  type: "PriorBox"
  bottom: "conv6_2"
  bottom: "data"
  top: "conv6_2_mbox_priorbox"
  prior_box_param {
    min_size: 155
    max_size: 235
    aspect_ratio: 2
    aspect_ratio: 3
    flip: true
    clip: true
    variance: 0.1
    variance: 0.1
    variance: 0.2
    variance: 0.2
  }
}
layer {
  name: "conv7_2_mbox_loc"
  type: "Convolution"
  bottom: "conv7_2"
  top: "conv7_2_mbox_loc"
  param {
    lr_mult: 1
    decay_mult: 1
  }
  param {
    lr_mult: 2
    decay_mult: 0
  }
  convolution_param {
    num_output: 24
    pad: 1
    kernel_size: 3
    stride: 1
    weight_filler {
      type: "xavier"
    }
    bias_filler {
      type: "constant"
      value: 0
    }
  }
}
layer {
  name: "conv7_2_mbox_loc_perm"
  type: "Permute"
  bottom: "conv7_2_mbox_loc"
  top: "conv7_2_mbox_loc_perm"
  permute_param {
    order: 0
    order: 2
    order: 3
    order: 1
  }
}
layer {
  name: "conv7_2_mbox_loc_flat"
  type: "Flatten"
  bottom: "conv7_2_mbox_loc_perm"
  top: "conv7_2_mbox_loc_flat"
  flatten_param {
    axis: 1
  }
}
layer {
  name: "conv7_2_mbox_conf"
  type: "Convolution"
  bottom: "conv7_2"
  top: "conv7_2_mbox_conf"
  param {
    lr_mult: 1
    decay_mult: 1
  }
  param {
    lr_mult: 2
    decay_mult: 0
  }
  convolution_param {
    num_output: 126
    pad: 1
    kernel_size: 3
    stride: 1
    weight_filler {
      type: "xavier"
    }
    bias_filler {
      type: "constant"
      value: 0
    }
  }
}
layer {
  name: "conv7_2_mbox_conf_perm"
  type: "Permute"
  bottom: "conv7_2_mbox_conf"
  top: "conv7_2_mbox_conf_perm"
  permute_param {
    order: 0
    order: 2
    order: 3
    order: 1
  }
}
layer {
  name: "conv7_2_mbox_conf_flat"
  type: "Flatten"
  bottom: "conv7_2_mbox_conf_perm"
  top: "conv7_2_mbox_conf_flat"
  flatten_param {
    axis: 1
  }
}
layer {
  name: "conv7_2_mbox_priorbox"
  type: "PriorBox"
  bottom: "conv7_2"
  bottom: "data"
  top: "conv7_2_mbox_priorbox"
  prior_box_param {
    min_size: 235
    max_size: 315
    aspect_ratio: 2
    aspect_ratio: 3
    flip: true
    clip: true
    variance: 0.1
    variance: 0.1
    variance: 0.2
    variance: 0.2
  }
}
layer {
  name: "conv8_2_mbox_loc"
  type: "Convolution"
  bottom: "conv8_2"
  top: "conv8_2_mbox_loc"
  param {
    lr_mult: 1
    decay_mult: 1
  }
  param {
    lr_mult: 2
    decay_mult: 0
  }
  convolution_param {
    num_output: 24
    pad: 1
    kernel_size: 3
    stride: 1
    weight_filler {
      type: "xavier"
    }
    bias_filler {
      type: "constant"
      value: 0
    }
  }
}
layer {
  name: "conv8_2_mbox_loc_perm"
  type: "Permute"
  bottom: "conv8_2_mbox_loc"
  top: "conv8_2_mbox_loc_perm"
  permute_param {
    order: 0
    order: 2
    order: 3
    order: 1
  }
}
layer {
  name: "conv8_2_mbox_loc_flat"
  type: "Flatten"
  bottom: "conv8_2_mbox_loc_perm"
  top: "conv8_2_mbox_loc_flat"
  flatten_param {
    axis: 1
  }
}
layer {
  name: "conv8_2_mbox_conf"
  type: "Convolution"
  bottom: "conv8_2"
  top: "conv8_2_mbox_conf"
  param {
    lr_mult: 1
    decay_mult: 1
  }
  param {
    lr_mult: 2
    decay_mult: 0
  }
  convolution_param {
    num_output: 126
    pad: 1
    kernel_size: 3
    stride: 1
    weight_filler {
      type: "xavier"
    }
    bias_filler {
      type: "constant"
      value: 0
    }
  }
}
layer {
  name: "conv8_2_mbox_conf_perm"
  type: "Permute"
  bottom: "conv8_2_mbox_conf"
  top: "conv8_2_mbox_conf_perm"
  permute_param {
    order: 0
    order: 2
    order: 3
    order: 1
  }
}
layer {
  name: "conv8_2_mbox_conf_flat"
  type: "Flatten"
  bottom: "conv8_2_mbox_conf_perm"
  top: "conv8_2_mbox_conf_flat"
  flatten_param {
    axis: 1
  }
}
layer {
  name: "conv8_2_mbox_priorbox"
  type: "PriorBox"
  bottom: "conv8_2"
  bottom: "data"
  top: "conv8_2_mbox_priorbox"
  prior_box_param {
    min_size: 315
    max_size: 395
    aspect_ratio: 2
    aspect_ratio: 3
    flip: true
    clip: true
    variance: 0.1
    variance: 0.1
    variance: 0.2
    variance: 0.2
  }
}
layer {
  name: "conv9_2_mbox_loc"
  type: "Convolution"
  bottom: "conv9_2"
  top: "conv9_2_mbox_loc"
  param {
    lr_mult: 1
    decay_mult: 1
  }
  param {
    lr_mult: 2
    decay_mult: 0
  }
  convolution_param {
    num_output: 24
    pad: 1
    kernel_size: 3
    stride: 1
    weight_filler {
      type: "xavier"
    }
    bias_filler {
      type: "constant"
      value: 0
    }
  }
}
layer {
  name: "conv9_2_mbox_loc_perm"
  type: "Permute"
  bottom: "conv9_2_mbox_loc"
  top: "conv9_2_mbox_loc_perm"
  permute_param {
    order: 0
    order: 2
    order: 3
    order: 1
  }
}
layer {
  name: "conv9_2_mbox_loc_flat"
  type: "Flatten"
  bottom: "conv9_2_mbox_loc_perm"
  top: "conv9_2_mbox_loc_flat"
  flatten_param {
    axis: 1
  }
}
layer {
  name: "conv9_2_mbox_conf"
  type: "Convolution"
  bottom: "conv9_2"
  top: "conv9_2_mbox_conf"
  param {
    lr_mult: 1
    decay_mult: 1
  }
  param {
    lr_mult: 2
    decay_mult: 0
  }
  convolution_param {
    num_output: 126
    pad: 1
    kernel_size: 3
    stride: 1
    weight_filler {
      type: "xavier"
    }
    bias_filler {
      type: "constant"
      value: 0
    }
  }
}
layer {
  name: "conv9_2_mbox_conf_perm"
  type: "Permute"
  bottom: "conv9_2_mbox_conf"
  top: "conv9_2_mbox_conf_perm"
  permute_param {
    order: 0
    order: 2
    order: 3
    order: 1
  }
}
layer {
  name: "conv9_2_mbox_conf_flat"
  type: "Flatten"
  bottom: "conv9_2_mbox_conf_perm"
  top: "conv9_2_mbox_conf_flat"
  flatten_param {
    axis: 1
  }
}
layer {
  name: "conv9_2_mbox_priorbox"
  type: "PriorBox"
  bottom: "conv9_2"
  bottom: "data"
  top: "conv9_2_mbox_priorbox"
  prior_box_param {
    min_size: 395
    max_size: 475
    aspect_ratio: 2
    aspect_ratio: 3
    flip: true
    clip: true
    variance: 0.1
    variance: 0.1
    variance: 0.2
    variance: 0.2
  }
}
layer {
  name: "pool6_mbox_loc"
  type: "Convolution"
  bottom: "pool6"
  top: "pool6_mbox_loc"
  param {
    lr_mult: 1
    decay_mult: 1
  }
  param {
    lr_mult: 2
    decay_mult: 0
  }
  convolution_param {
    num_output: 24
    pad: 1
    kernel_size: 3
    stride: 1
    weight_filler {
      type: "xavier"
    }
    bias_filler {
      type: "constant"
      value: 0
    }
  }
}
layer {
  name: "pool6_mbox_loc_perm"
  type: "Permute"
  bottom: "pool6_mbox_loc"
  top: "pool6_mbox_loc_perm"
  permute_param {
    order: 0
    order: 2
    order: 3
    order: 1
  }
}
layer {
  name: "pool6_mbox_loc_flat"
  type: "Flatten"
  bottom: "pool6_mbox_loc_perm"
  top: "pool6_mbox_loc_flat"
  flatten_param {
    axis: 1
  }
}
layer {
  name: "pool6_mbox_conf"
  type: "Convolution"
  bottom: "pool6"
  top: "pool6_mbox_conf"
  param {
    lr_mult: 1
    decay_mult: 1
  }
  param {
    lr_mult: 2
    decay_mult: 0
  }
  convolution_param {
    num_output: 126
    pad: 1
    kernel_size: 3
    stride: 1
    weight_filler {
      type: "xavier"
    }
    bias_filler {
      type: "constant"
      value: 0
    }
  }
}
layer {
  name: "pool6_mbox_conf_perm"
  type: "Permute"
  bottom: "pool6_mbox_conf"
  top: "pool6_mbox_conf_perm"
  permute_param {
    order: 0
    order: 2
    order: 3
    order: 1
  }
}
layer {
  name: "pool6_mbox_conf_flat"
  type: "Flatten"
  bottom: "pool6_mbox_conf_perm"
  top: "pool6_mbox_conf_flat"
  flatten_param {
    axis: 1
  }
}
layer {
  name: "pool6_mbox_priorbox"
  type: "PriorBox"
  bottom: "pool6"
  bottom: "data"
  top: "pool6_mbox_priorbox"
  prior_box_param {
    min_size: 475
    max_size: 555
    aspect_ratio: 2
    aspect_ratio: 3
    flip: true
    clip: true
    variance: 0.1
    variance: 0.1
    variance: 0.2
    variance: 0.2
  }
}
layer {
  name: "mbox_loc"
  type: "Concat"
  bottom: "conv4_3_norm_mbox_loc_flat"
  bottom: "fc7_mbox_loc_flat"
  bottom: "conv6_2_mbox_loc_flat"
  bottom: "conv7_2_mbox_loc_flat"
  bottom: "conv8_2_mbox_loc_flat"
  bottom: "conv9_2_mbox_loc_flat"
  bottom: "pool6_mbox_loc_flat"
  top: "mbox_loc"
  concat_param {
    axis: 1
  }
}
layer {
  name: "mbox_conf"
  type: "Concat"
  bottom: "conv4_3_norm_mbox_conf_flat"
  bottom: "fc7_mbox_conf_flat"
  bottom: "conv6_2_mbox_conf_flat"
  bottom: "conv7_2_mbox_conf_flat"
  bottom: "conv8_2_mbox_conf_flat"
  bottom: "conv9_2_mbox_conf_flat"
  bottom: "pool6_mbox_conf_flat"
  top: "mbox_conf"
  concat_param {
    axis: 1
  }
}
layer {
  name: "mbox_priorbox"
  type: "Concat"
  bottom: "conv4_3_norm_mbox_priorbox"
  bottom: "fc7_mbox_priorbox"
  bottom: "conv6_2_mbox_priorbox"
  bottom: "conv7_2_mbox_priorbox"
  bottom: "conv8_2_mbox_priorbox"
  bottom: "conv9_2_mbox_priorbox"
  bottom: "pool6_mbox_priorbox"
  top: "mbox_priorbox"
  concat_param {
    axis: 2
  }
}
layer {
  name: "mbox_loss"
  type: "MultiBoxLoss"
  bottom: "mbox_loc"
  bottom: "mbox_conf"
  bottom: "mbox_priorbox"
  bottom: "label"
  top: "mbox_loss"
  include {
    phase: TRAIN
  }
  propagate_down: true
  propagate_down: true
  propagate_down: false
  propagate_down: false
  loss_param {
    normalization: VALID
  }
  multibox_loss_param {
    loc_loss_type: SMOOTH_L1
    conf_loss_type: SOFTMAX
    loc_weight: 1
    num_classes: 21
    share_location: true
    match_type: PER_PREDICTION
    overlap_threshold: 0.5
    use_prior_for_matching: true
    background_label_id: 0
    use_difficult_gt: true
    do_neg_mining: true
    neg_pos_ratio: 3
    neg_overlap: 0.5
    code_type: CENTER_SIZE
  }
}
I0311 14:12:12.214519   660 layer_factory.hpp:77] Creating layer data
I0311 14:12:12.215131   660 net.cpp:91] Creating Layer data
I0311 14:12:12.215152   660 net.cpp:399] data -> data
I0311 14:12:12.215216   660 net.cpp:399] data -> label
I0311 14:12:12.270534   664 db_lmdb.cpp:38] Opened lmdb examples/VOC0712/VOC0712_trainval_lmdb
I0311 14:12:12.505775   660 annotated_data_layer.cpp:52] output data size: 8,3,500,500
I0311 14:12:12.554765   660 net.cpp:141] Setting up data
I0311 14:12:12.554823   660 net.cpp:148] Top shape: 8 3 500 500 (6000000)
I0311 14:12:12.554834   660 net.cpp:148] Top shape: 1 1 7 8 (56)
I0311 14:12:12.554838   660 net.cpp:156] Memory required for data: 24000224
I0311 14:12:12.554858   660 layer_factory.hpp:77] Creating layer data_data_0_split
I0311 14:12:12.554878   660 net.cpp:91] Creating Layer data_data_0_split
I0311 14:12:12.554888   660 net.cpp:425] data_data_0_split <- data
I0311 14:12:12.554913   660 net.cpp:399] data_data_0_split -> data_data_0_split_0
I0311 14:12:12.554926   660 net.cpp:399] data_data_0_split -> data_data_0_split_1
I0311 14:12:12.554939   660 net.cpp:399] data_data_0_split -> data_data_0_split_2
I0311 14:12:12.554955   660 net.cpp:399] data_data_0_split -> data_data_0_split_3
I0311 14:12:12.554962   660 net.cpp:399] data_data_0_split -> data_data_0_split_4
I0311 14:12:12.554970   660 net.cpp:399] data_data_0_split -> data_data_0_split_5
I0311 14:12:12.554975   660 net.cpp:399] data_data_0_split -> data_data_0_split_6
I0311 14:12:12.554982   660 net.cpp:399] data_data_0_split -> data_data_0_split_7
I0311 14:12:12.555100   660 net.cpp:141] Setting up data_data_0_split
I0311 14:12:12.555109   660 net.cpp:148] Top shape: 8 3 500 500 (6000000)
I0311 14:12:12.555114   660 net.cpp:148] Top shape: 8 3 500 500 (6000000)
I0311 14:12:12.555119   660 net.cpp:148] Top shape: 8 3 500 500 (6000000)
I0311 14:12:12.555124   660 net.cpp:148] Top shape: 8 3 500 500 (6000000)
I0311 14:12:12.555130   660 net.cpp:148] Top shape: 8 3 500 500 (6000000)
I0311 14:12:12.555135   660 net.cpp:148] Top shape: 8 3 500 500 (6000000)
I0311 14:12:12.555140   660 net.cpp:148] Top shape: 8 3 500 500 (6000000)
I0311 14:12:12.555145   660 net.cpp:148] Top shape: 8 3 500 500 (6000000)
I0311 14:12:12.555148   660 net.cpp:156] Memory required for data: 216000224
I0311 14:12:12.555152   660 layer_factory.hpp:77] Creating layer conv1_1
I0311 14:12:12.555181   660 net.cpp:91] Creating Layer conv1_1
I0311 14:12:12.555186   660 net.cpp:425] conv1_1 <- data_data_0_split_0
I0311 14:12:12.555194   660 net.cpp:399] conv1_1 -> conv1_1
I0311 14:12:12.609758   666 blocking_queue.cpp:50] Waiting for data
I0311 14:12:13.165264   660 net.cpp:141] Setting up conv1_1
I0311 14:12:13.165300   660 net.cpp:148] Top shape: 8 64 500 500 (128000000)
I0311 14:12:13.165305   660 net.cpp:156] Memory required for data: 728000224
I0311 14:12:13.165333   660 layer_factory.hpp:77] Creating layer relu1_1
I0311 14:12:13.165349   660 net.cpp:91] Creating Layer relu1_1
I0311 14:12:13.165355   660 net.cpp:425] relu1_1 <- conv1_1
I0311 14:12:13.165364   660 net.cpp:386] relu1_1 -> conv1_1 (in-place)
I0311 14:12:13.165523   660 net.cpp:141] Setting up relu1_1
I0311 14:12:13.165534   660 net.cpp:148] Top shape: 8 64 500 500 (128000000)
I0311 14:12:13.165547   660 net.cpp:156] Memory required for data: 1240000224
I0311 14:12:13.165552   660 layer_factory.hpp:77] Creating layer conv1_2
I0311 14:12:13.165570   660 net.cpp:91] Creating Layer conv1_2
I0311 14:12:13.165575   660 net.cpp:425] conv1_2 <- conv1_1
I0311 14:12:13.165583   660 net.cpp:399] conv1_2 -> conv1_2
I0311 14:12:13.168352   660 net.cpp:141] Setting up conv1_2
I0311 14:12:13.168366   660 net.cpp:148] Top shape: 8 64 500 500 (128000000)
I0311 14:12:13.168370   660 net.cpp:156] Memory required for data: 1752000224
I0311 14:12:13.168382   660 layer_factory.hpp:77] Creating layer relu1_2
I0311 14:12:13.168390   660 net.cpp:91] Creating Layer relu1_2
I0311 14:12:13.168395   660 net.cpp:425] relu1_2 <- conv1_2
I0311 14:12:13.168401   660 net.cpp:386] relu1_2 -> conv1_2 (in-place)
I0311 14:12:13.168727   660 net.cpp:141] Setting up relu1_2
I0311 14:12:13.168741   660 net.cpp:148] Top shape: 8 64 500 500 (128000000)
I0311 14:12:13.168745   660 net.cpp:156] Memory required for data: 2264000224
I0311 14:12:13.168751   660 layer_factory.hpp:77] Creating layer pool1
I0311 14:12:13.168761   660 net.cpp:91] Creating Layer pool1
I0311 14:12:13.168766   660 net.cpp:425] pool1 <- conv1_2
I0311 14:12:13.168772   660 net.cpp:399] pool1 -> pool1
I0311 14:12:13.168838   660 net.cpp:141] Setting up pool1
I0311 14:12:13.168850   660 net.cpp:148] Top shape: 8 64 250 250 (32000000)
I0311 14:12:13.168855   660 net.cpp:156] Memory required for data: 2392000224
I0311 14:12:13.168859   660 layer_factory.hpp:77] Creating layer conv2_1
I0311 14:12:13.168871   660 net.cpp:91] Creating Layer conv2_1
I0311 14:12:13.168879   660 net.cpp:425] conv2_1 <- pool1
I0311 14:12:13.168885   660 net.cpp:399] conv2_1 -> conv2_1
I0311 14:12:13.171123   660 net.cpp:141] Setting up conv2_1
I0311 14:12:13.171141   660 net.cpp:148] Top shape: 8 128 250 250 (64000000)
I0311 14:12:13.171146   660 net.cpp:156] Memory required for data: 2648000224
I0311 14:12:13.171156   660 layer_factory.hpp:77] Creating layer relu2_1
I0311 14:12:13.171165   660 net.cpp:91] Creating Layer relu2_1
I0311 14:12:13.171169   660 net.cpp:425] relu2_1 <- conv2_1
I0311 14:12:13.171176   660 net.cpp:386] relu2_1 -> conv2_1 (in-place)
I0311 14:12:13.171336   660 net.cpp:141] Setting up relu2_1
I0311 14:12:13.171346   660 net.cpp:148] Top shape: 8 128 250 250 (64000000)
I0311 14:12:13.171350   660 net.cpp:156] Memory required for data: 2904000224
I0311 14:12:13.171355   660 layer_factory.hpp:77] Creating layer conv2_2
I0311 14:12:13.171366   660 net.cpp:91] Creating Layer conv2_2
I0311 14:12:13.171371   660 net.cpp:425] conv2_2 <- conv2_1
I0311 14:12:13.171381   660 net.cpp:399] conv2_2 -> conv2_2
I0311 14:12:13.173465   660 net.cpp:141] Setting up conv2_2
I0311 14:12:13.173480   660 net.cpp:148] Top shape: 8 128 250 250 (64000000)
I0311 14:12:13.173485   660 net.cpp:156] Memory required for data: 3160000224
I0311 14:12:13.173491   660 layer_factory.hpp:77] Creating layer relu2_2
I0311 14:12:13.173498   660 net.cpp:91] Creating Layer relu2_2
I0311 14:12:13.173503   660 net.cpp:425] relu2_2 <- conv2_2
I0311 14:12:13.173509   660 net.cpp:386] relu2_2 -> conv2_2 (in-place)
I0311 14:12:13.173672   660 net.cpp:141] Setting up relu2_2
I0311 14:12:13.173682   660 net.cpp:148] Top shape: 8 128 250 250 (64000000)
I0311 14:12:13.173686   660 net.cpp:156] Memory required for data: 3416000224
I0311 14:12:13.173691   660 layer_factory.hpp:77] Creating layer pool2
I0311 14:12:13.173698   660 net.cpp:91] Creating Layer pool2
I0311 14:12:13.173702   660 net.cpp:425] pool2 <- conv2_2
I0311 14:12:13.173712   660 net.cpp:399] pool2 -> pool2
I0311 14:12:13.173753   660 net.cpp:141] Setting up pool2
I0311 14:12:13.173764   660 net.cpp:148] Top shape: 8 128 125 125 (16000000)
I0311 14:12:13.173768   660 net.cpp:156] Memory required for data: 3480000224
I0311 14:12:13.173773   660 layer_factory.hpp:77] Creating layer conv3_1
I0311 14:12:13.173784   660 net.cpp:91] Creating Layer conv3_1
I0311 14:12:13.173789   660 net.cpp:425] conv3_1 <- pool2
I0311 14:12:13.173795   660 net.cpp:399] conv3_1 -> conv3_1
I0311 14:12:13.178187   660 net.cpp:141] Setting up conv3_1
I0311 14:12:13.178203   660 net.cpp:148] Top shape: 8 256 125 125 (32000000)
I0311 14:12:13.178207   660 net.cpp:156] Memory required for data: 3608000224
I0311 14:12:13.178217   660 layer_factory.hpp:77] Creating layer relu3_1
I0311 14:12:13.178225   660 net.cpp:91] Creating Layer relu3_1
I0311 14:12:13.178231   660 net.cpp:425] relu3_1 <- conv3_1
I0311 14:12:13.178236   660 net.cpp:386] relu3_1 -> conv3_1 (in-place)
I0311 14:12:13.178570   660 net.cpp:141] Setting up relu3_1
I0311 14:12:13.178581   660 net.cpp:148] Top shape: 8 256 125 125 (32000000)
I0311 14:12:13.178586   660 net.cpp:156] Memory required for data: 3736000224
I0311 14:12:13.178589   660 layer_factory.hpp:77] Creating layer conv3_2
I0311 14:12:13.178602   660 net.cpp:91] Creating Layer conv3_2
I0311 14:12:13.178607   660 net.cpp:425] conv3_2 <- conv3_1
I0311 14:12:13.178617   660 net.cpp:399] conv3_2 -> conv3_2
I0311 14:12:13.185119   660 net.cpp:141] Setting up conv3_2
I0311 14:12:13.185132   660 net.cpp:148] Top shape: 8 256 125 125 (32000000)
I0311 14:12:13.185137   660 net.cpp:156] Memory required for data: 3864000224
I0311 14:12:13.185143   660 layer_factory.hpp:77] Creating layer relu3_2
I0311 14:12:13.185153   660 net.cpp:91] Creating Layer relu3_2
I0311 14:12:13.185156   660 net.cpp:425] relu3_2 <- conv3_2
I0311 14:12:13.185163   660 net.cpp:386] relu3_2 -> conv3_2 (in-place)
I0311 14:12:13.185328   660 net.cpp:141] Setting up relu3_2
I0311 14:12:13.185338   660 net.cpp:148] Top shape: 8 256 125 125 (32000000)
I0311 14:12:13.185341   660 net.cpp:156] Memory required for data: 3992000224
I0311 14:12:13.185345   660 layer_factory.hpp:77] Creating layer conv3_3
I0311 14:12:13.185361   660 net.cpp:91] Creating Layer conv3_3
I0311 14:12:13.185367   660 net.cpp:425] conv3_3 <- conv3_2
I0311 14:12:13.185375   660 net.cpp:399] conv3_3 -> conv3_3
I0311 14:12:13.192107   660 net.cpp:141] Setting up conv3_3
I0311 14:12:13.192123   660 net.cpp:148] Top shape: 8 256 125 125 (32000000)
I0311 14:12:13.192127   660 net.cpp:156] Memory required for data: 4120000224
I0311 14:12:13.192133   660 layer_factory.hpp:77] Creating layer relu3_3
I0311 14:12:13.192140   660 net.cpp:91] Creating Layer relu3_3
I0311 14:12:13.192144   660 net.cpp:425] relu3_3 <- conv3_3
I0311 14:12:13.192150   660 net.cpp:386] relu3_3 -> conv3_3 (in-place)
I0311 14:12:13.192317   660 net.cpp:141] Setting up relu3_3
I0311 14:12:13.192328   660 net.cpp:148] Top shape: 8 256 125 125 (32000000)
I0311 14:12:13.192332   660 net.cpp:156] Memory required for data: 4248000224
I0311 14:12:13.192337   660 layer_factory.hpp:77] Creating layer pool3
I0311 14:12:13.192344   660 net.cpp:91] Creating Layer pool3
I0311 14:12:13.192348   660 net.cpp:425] pool3 <- conv3_3
I0311 14:12:13.192358   660 net.cpp:399] pool3 -> pool3
I0311 14:12:13.192405   660 net.cpp:141] Setting up pool3
I0311 14:12:13.192415   660 net.cpp:148] Top shape: 8 256 63 63 (8128512)
I0311 14:12:13.192420   660 net.cpp:156] Memory required for data: 4280514272
I0311 14:12:13.192423   660 layer_factory.hpp:77] Creating layer conv4_1
I0311 14:12:13.192435   660 net.cpp:91] Creating Layer conv4_1
I0311 14:12:13.192440   660 net.cpp:425] conv4_1 <- pool3
I0311 14:12:13.192447   660 net.cpp:399] conv4_1 -> conv4_1
I0311 14:12:13.205163   660 net.cpp:141] Setting up conv4_1
I0311 14:12:13.205178   660 net.cpp:148] Top shape: 8 512 63 63 (16257024)
I0311 14:12:13.205181   660 net.cpp:156] Memory required for data: 4345542368
I0311 14:12:13.205188   660 layer_factory.hpp:77] Creating layer relu4_1
I0311 14:12:13.205195   660 net.cpp:91] Creating Layer relu4_1
I0311 14:12:13.205199   660 net.cpp:425] relu4_1 <- conv4_1
I0311 14:12:13.205207   660 net.cpp:386] relu4_1 -> conv4_1 (in-place)
I0311 14:12:13.205554   660 net.cpp:141] Setting up relu4_1
I0311 14:12:13.205565   660 net.cpp:148] Top shape: 8 512 63 63 (16257024)
I0311 14:12:13.205569   660 net.cpp:156] Memory required for data: 4410570464
I0311 14:12:13.205574   660 layer_factory.hpp:77] Creating layer conv4_2
I0311 14:12:13.205587   660 net.cpp:91] Creating Layer conv4_2
I0311 14:12:13.205600   660 net.cpp:425] conv4_2 <- conv4_1
I0311 14:12:13.205607   660 net.cpp:399] conv4_2 -> conv4_2
I0311 14:12:13.229323   660 net.cpp:141] Setting up conv4_2
I0311 14:12:13.229337   660 net.cpp:148] Top shape: 8 512 63 63 (16257024)
I0311 14:12:13.229341   660 net.cpp:156] Memory required for data: 4475598560
I0311 14:12:13.229356   660 layer_factory.hpp:77] Creating layer relu4_2
I0311 14:12:13.229362   660 net.cpp:91] Creating Layer relu4_2
I0311 14:12:13.229367   660 net.cpp:425] relu4_2 <- conv4_2
I0311 14:12:13.229372   660 net.cpp:386] relu4_2 -> conv4_2 (in-place)
I0311 14:12:13.229537   660 net.cpp:141] Setting up relu4_2
I0311 14:12:13.229547   660 net.cpp:148] Top shape: 8 512 63 63 (16257024)
I0311 14:12:13.229550   660 net.cpp:156] Memory required for data: 4540626656
I0311 14:12:13.229554   660 layer_factory.hpp:77] Creating layer conv4_3
I0311 14:12:13.229569   660 net.cpp:91] Creating Layer conv4_3
I0311 14:12:13.229574   660 net.cpp:425] conv4_3 <- conv4_2
I0311 14:12:13.229585   660 net.cpp:399] conv4_3 -> conv4_3
I0311 14:12:13.251548   660 net.cpp:141] Setting up conv4_3
I0311 14:12:13.251562   660 net.cpp:148] Top shape: 8 512 63 63 (16257024)
I0311 14:12:13.251566   660 net.cpp:156] Memory required for data: 4605654752
I0311 14:12:13.251574   660 layer_factory.hpp:77] Creating layer relu4_3
I0311 14:12:13.251580   660 net.cpp:91] Creating Layer relu4_3
I0311 14:12:13.251585   660 net.cpp:425] relu4_3 <- conv4_3
I0311 14:12:13.251592   660 net.cpp:386] relu4_3 -> conv4_3 (in-place)
I0311 14:12:13.251754   660 net.cpp:141] Setting up relu4_3
I0311 14:12:13.251765   660 net.cpp:148] Top shape: 8 512 63 63 (16257024)
I0311 14:12:13.251770   660 net.cpp:156] Memory required for data: 4670682848
I0311 14:12:13.251773   660 layer_factory.hpp:77] Creating layer conv4_3_relu4_3_0_split
I0311 14:12:13.251780   660 net.cpp:91] Creating Layer conv4_3_relu4_3_0_split
I0311 14:12:13.251785   660 net.cpp:425] conv4_3_relu4_3_0_split <- conv4_3
I0311 14:12:13.251791   660 net.cpp:399] conv4_3_relu4_3_0_split -> conv4_3_relu4_3_0_split_0
I0311 14:12:13.251799   660 net.cpp:399] conv4_3_relu4_3_0_split -> conv4_3_relu4_3_0_split_1
I0311 14:12:13.251844   660 net.cpp:141] Setting up conv4_3_relu4_3_0_split
I0311 14:12:13.251852   660 net.cpp:148] Top shape: 8 512 63 63 (16257024)
I0311 14:12:13.251857   660 net.cpp:148] Top shape: 8 512 63 63 (16257024)
I0311 14:12:13.251862   660 net.cpp:156] Memory required for data: 4800739040
I0311 14:12:13.251864   660 layer_factory.hpp:77] Creating layer pool4
I0311 14:12:13.251874   660 net.cpp:91] Creating Layer pool4
I0311 14:12:13.251878   660 net.cpp:425] pool4 <- conv4_3_relu4_3_0_split_0
I0311 14:12:13.251885   660 net.cpp:399] pool4 -> pool4
I0311 14:12:13.251927   660 net.cpp:141] Setting up pool4
I0311 14:12:13.251935   660 net.cpp:148] Top shape: 8 512 32 32 (4194304)
I0311 14:12:13.251938   660 net.cpp:156] Memory required for data: 4817516256
I0311 14:12:13.251942   660 layer_factory.hpp:77] Creating layer conv5_1
I0311 14:12:13.251955   660 net.cpp:91] Creating Layer conv5_1
I0311 14:12:13.251960   660 net.cpp:425] conv5_1 <- pool4
I0311 14:12:13.251971   660 net.cpp:399] conv5_1 -> conv5_1
I0311 14:12:13.273948   660 net.cpp:141] Setting up conv5_1
I0311 14:12:13.273963   660 net.cpp:148] Top shape: 8 512 32 32 (4194304)
I0311 14:12:13.273967   660 net.cpp:156] Memory required for data: 4834293472
I0311 14:12:13.273975   660 layer_factory.hpp:77] Creating layer relu5_1
I0311 14:12:13.273985   660 net.cpp:91] Creating Layer relu5_1
I0311 14:12:13.273990   660 net.cpp:425] relu5_1 <- conv5_1
I0311 14:12:13.273996   660 net.cpp:386] relu5_1 -> conv5_1 (in-place)
I0311 14:12:13.274333   660 net.cpp:141] Setting up relu5_1
I0311 14:12:13.274345   660 net.cpp:148] Top shape: 8 512 32 32 (4194304)
I0311 14:12:13.274348   660 net.cpp:156] Memory required for data: 4851070688
I0311 14:12:13.274353   660 layer_factory.hpp:77] Creating layer conv5_2
I0311 14:12:13.274364   660 net.cpp:91] Creating Layer conv5_2
I0311 14:12:13.274379   660 net.cpp:425] conv5_2 <- conv5_1
I0311 14:12:13.274389   660 net.cpp:399] conv5_2 -> conv5_2
I0311 14:12:13.298135   660 net.cpp:141] Setting up conv5_2
I0311 14:12:13.298148   660 net.cpp:148] Top shape: 8 512 32 32 (4194304)
I0311 14:12:13.298152   660 net.cpp:156] Memory required for data: 4867847904
I0311 14:12:13.298159   660 layer_factory.hpp:77] Creating layer relu5_2
I0311 14:12:13.298166   660 net.cpp:91] Creating Layer relu5_2
I0311 14:12:13.298171   660 net.cpp:425] relu5_2 <- conv5_2
I0311 14:12:13.298178   660 net.cpp:386] relu5_2 -> conv5_2 (in-place)
I0311 14:12:13.298341   660 net.cpp:141] Setting up relu5_2
I0311 14:12:13.298353   660 net.cpp:148] Top shape: 8 512 32 32 (4194304)
I0311 14:12:13.298357   660 net.cpp:156] Memory required for data: 4884625120
I0311 14:12:13.298362   660 layer_factory.hpp:77] Creating layer conv5_3
I0311 14:12:13.298375   660 net.cpp:91] Creating Layer conv5_3
I0311 14:12:13.298380   660 net.cpp:425] conv5_3 <- conv5_2
I0311 14:12:13.298388   660 net.cpp:399] conv5_3 -> conv5_3
I0311 14:12:13.320384   660 net.cpp:141] Setting up conv5_3
I0311 14:12:13.320400   660 net.cpp:148] Top shape: 8 512 32 32 (4194304)
I0311 14:12:13.320405   660 net.cpp:156] Memory required for data: 4901402336
I0311 14:12:13.320411   660 layer_factory.hpp:77] Creating layer relu5_3
I0311 14:12:13.320430   660 net.cpp:91] Creating Layer relu5_3
I0311 14:12:13.320436   660 net.cpp:425] relu5_3 <- conv5_3
I0311 14:12:13.320446   660 net.cpp:386] relu5_3 -> conv5_3 (in-place)
I0311 14:12:13.320613   660 net.cpp:141] Setting up relu5_3
I0311 14:12:13.320623   660 net.cpp:148] Top shape: 8 512 32 32 (4194304)
I0311 14:12:13.320627   660 net.cpp:156] Memory required for data: 4918179552
I0311 14:12:13.320631   660 layer_factory.hpp:77] Creating layer pool5
I0311 14:12:13.320642   660 net.cpp:91] Creating Layer pool5
I0311 14:12:13.320647   660 net.cpp:425] pool5 <- conv5_3
I0311 14:12:13.320654   660 net.cpp:399] pool5 -> pool5
I0311 14:12:13.320704   660 net.cpp:141] Setting up pool5
I0311 14:12:13.320713   660 net.cpp:148] Top shape: 8 512 32 32 (4194304)
I0311 14:12:13.320716   660 net.cpp:156] Memory required for data: 4934956768
I0311 14:12:13.320720   660 layer_factory.hpp:77] Creating layer fc6
I0311 14:12:13.320732   660 net.cpp:91] Creating Layer fc6
I0311 14:12:13.320737   660 net.cpp:425] fc6 <- pool5
I0311 14:12:13.320747   660 net.cpp:399] fc6 -> fc6
I0311 14:12:13.363417   660 net.cpp:141] Setting up fc6
I0311 14:12:13.363441   660 net.cpp:148] Top shape: 8 1024 32 32 (8388608)
I0311 14:12:13.363445   660 net.cpp:156] Memory required for data: 4968511200
I0311 14:12:13.363454   660 layer_factory.hpp:77] Creating layer relu6
I0311 14:12:13.363462   660 net.cpp:91] Creating Layer relu6
I0311 14:12:13.363468   660 net.cpp:425] relu6 <- fc6
I0311 14:12:13.363474   660 net.cpp:386] relu6 -> fc6 (in-place)
I0311 14:12:13.364123   660 net.cpp:141] Setting up relu6
I0311 14:12:13.364135   660 net.cpp:148] Top shape: 8 1024 32 32 (8388608)
I0311 14:12:13.364140   660 net.cpp:156] Memory required for data: 5002065632
I0311 14:12:13.364143   660 layer_factory.hpp:77] Creating layer fc7
I0311 14:12:13.364158   660 net.cpp:91] Creating Layer fc7
I0311 14:12:13.364164   660 net.cpp:425] fc7 <- fc6
I0311 14:12:13.364171   660 net.cpp:399] fc7 -> fc7
I0311 14:12:13.375262   660 net.cpp:141] Setting up fc7
I0311 14:12:13.375277   660 net.cpp:148] Top shape: 8 1024 32 32 (8388608)
I0311 14:12:13.375280   660 net.cpp:156] Memory required for data: 5035620064
I0311 14:12:13.375288   660 layer_factory.hpp:77] Creating layer relu7
I0311 14:12:13.375293   660 net.cpp:91] Creating Layer relu7
I0311 14:12:13.375298   660 net.cpp:425] relu7 <- fc7
I0311 14:12:13.375305   660 net.cpp:386] relu7 -> fc7 (in-place)
I0311 14:12:13.375475   660 net.cpp:141] Setting up relu7
I0311 14:12:13.375485   660 net.cpp:148] Top shape: 8 1024 32 32 (8388608)
I0311 14:12:13.375490   660 net.cpp:156] Memory required for data: 5069174496
I0311 14:12:13.375494   660 layer_factory.hpp:77] Creating layer fc7_relu7_0_split
I0311 14:12:13.375514   660 net.cpp:91] Creating Layer fc7_relu7_0_split
I0311 14:12:13.375519   660 net.cpp:425] fc7_relu7_0_split <- fc7
I0311 14:12:13.375525   660 net.cpp:399] fc7_relu7_0_split -> fc7_relu7_0_split_0
I0311 14:12:13.375541   660 net.cpp:399] fc7_relu7_0_split -> fc7_relu7_0_split_1
I0311 14:12:13.375550   660 net.cpp:399] fc7_relu7_0_split -> fc7_relu7_0_split_2
I0311 14:12:13.375556   660 net.cpp:399] fc7_relu7_0_split -> fc7_relu7_0_split_3
I0311 14:12:13.375623   660 net.cpp:141] Setting up fc7_relu7_0_split
I0311 14:12:13.375635   660 net.cpp:148] Top shape: 8 1024 32 32 (8388608)
I0311 14:12:13.375640   660 net.cpp:148] Top shape: 8 1024 32 32 (8388608)
I0311 14:12:13.375644   660 net.cpp:148] Top shape: 8 1024 32 32 (8388608)
I0311 14:12:13.375649   660 net.cpp:148] Top shape: 8 1024 32 32 (8388608)
I0311 14:12:13.375653   660 net.cpp:156] Memory required for data: 5203392224
I0311 14:12:13.375656   660 layer_factory.hpp:77] Creating layer conv6_1
I0311 14:12:13.375669   660 net.cpp:91] Creating Layer conv6_1
I0311 14:12:13.375704   660 net.cpp:425] conv6_1 <- fc7_relu7_0_split_0
I0311 14:12:13.375710   660 net.cpp:399] conv6_1 -> conv6_1
I0311 14:12:13.379353   660 net.cpp:141] Setting up conv6_1
I0311 14:12:13.379365   660 net.cpp:148] Top shape: 8 256 32 32 (2097152)
I0311 14:12:13.379369   660 net.cpp:156] Memory required for data: 5211780832
I0311 14:12:13.379376   660 layer_factory.hpp:77] Creating layer conv6_1_relu
I0311 14:12:13.379384   660 net.cpp:91] Creating Layer conv6_1_relu
I0311 14:12:13.379390   660 net.cpp:425] conv6_1_relu <- conv6_1
I0311 14:12:13.379395   660 net.cpp:386] conv6_1_relu -> conv6_1 (in-place)
I0311 14:12:13.379737   660 net.cpp:141] Setting up conv6_1_relu
I0311 14:12:13.379750   660 net.cpp:148] Top shape: 8 256 32 32 (2097152)
I0311 14:12:13.379753   660 net.cpp:156] Memory required for data: 5220169440
I0311 14:12:13.379757   660 layer_factory.hpp:77] Creating layer conv6_2
I0311 14:12:13.379772   660 net.cpp:91] Creating Layer conv6_2
I0311 14:12:13.379777   660 net.cpp:425] conv6_2 <- conv6_1
I0311 14:12:13.379786   660 net.cpp:399] conv6_2 -> conv6_2
I0311 14:12:13.392144   660 net.cpp:141] Setting up conv6_2
I0311 14:12:13.392159   660 net.cpp:148] Top shape: 8 512 16 16 (1048576)
I0311 14:12:13.392163   660 net.cpp:156] Memory required for data: 5224363744
I0311 14:12:13.392179   660 layer_factory.hpp:77] Creating layer conv6_2_relu
I0311 14:12:13.392186   660 net.cpp:91] Creating Layer conv6_2_relu
I0311 14:12:13.392192   660 net.cpp:425] conv6_2_relu <- conv6_2
I0311 14:12:13.392199   660 net.cpp:386] conv6_2_relu -> conv6_2 (in-place)
I0311 14:12:13.392535   660 net.cpp:141] Setting up conv6_2_relu
I0311 14:12:13.392546   660 net.cpp:148] Top shape: 8 512 16 16 (1048576)
I0311 14:12:13.392550   660 net.cpp:156] Memory required for data: 5228558048
I0311 14:12:13.392554   660 layer_factory.hpp:77] Creating layer conv6_2_conv6_2_relu_0_split
I0311 14:12:13.392561   660 net.cpp:91] Creating Layer conv6_2_conv6_2_relu_0_split
I0311 14:12:13.392565   660 net.cpp:425] conv6_2_conv6_2_relu_0_split <- conv6_2
I0311 14:12:13.392575   660 net.cpp:399] conv6_2_conv6_2_relu_0_split -> conv6_2_conv6_2_relu_0_split_0
I0311 14:12:13.392582   660 net.cpp:399] conv6_2_conv6_2_relu_0_split -> conv6_2_conv6_2_relu_0_split_1
I0311 14:12:13.392590   660 net.cpp:399] conv6_2_conv6_2_relu_0_split -> conv6_2_conv6_2_relu_0_split_2
I0311 14:12:13.392597   660 net.cpp:399] conv6_2_conv6_2_relu_0_split -> conv6_2_conv6_2_relu_0_split_3
I0311 14:12:13.392663   660 net.cpp:141] Setting up conv6_2_conv6_2_relu_0_split
I0311 14:12:13.392671   660 net.cpp:148] Top shape: 8 512 16 16 (1048576)
I0311 14:12:13.392676   660 net.cpp:148] Top shape: 8 512 16 16 (1048576)
I0311 14:12:13.392681   660 net.cpp:148] Top shape: 8 512 16 16 (1048576)
I0311 14:12:13.392686   660 net.cpp:148] Top shape: 8 512 16 16 (1048576)
I0311 14:12:13.392690   660 net.cpp:156] Memory required for data: 5245335264
I0311 14:12:13.392693   660 layer_factory.hpp:77] Creating layer conv7_1
I0311 14:12:13.392714   660 net.cpp:91] Creating Layer conv7_1
I0311 14:12:13.392719   660 net.cpp:425] conv7_1 <- conv6_2_conv6_2_relu_0_split_0
I0311 14:12:13.392726   660 net.cpp:399] conv7_1 -> conv7_1
I0311 14:12:13.394368   660 net.cpp:141] Setting up conv7_1
I0311 14:12:13.394381   660 net.cpp:148] Top shape: 8 128 16 16 (262144)
I0311 14:12:13.394384   660 net.cpp:156] Memory required for data: 5246383840
I0311 14:12:13.394392   660 layer_factory.hpp:77] Creating layer conv7_1_relu
I0311 14:12:13.394399   660 net.cpp:91] Creating Layer conv7_1_relu
I0311 14:12:13.394404   660 net.cpp:425] conv7_1_relu <- conv7_1
I0311 14:12:13.394409   660 net.cpp:386] conv7_1_relu -> conv7_1 (in-place)
I0311 14:12:13.394582   660 net.cpp:141] Setting up conv7_1_relu
I0311 14:12:13.394592   660 net.cpp:148] Top shape: 8 128 16 16 (262144)
I0311 14:12:13.394595   660 net.cpp:156] Memory required for data: 5247432416
I0311 14:12:13.394599   660 layer_factory.hpp:77] Creating layer conv7_2
I0311 14:12:13.394611   660 net.cpp:91] Creating Layer conv7_2
I0311 14:12:13.394618   660 net.cpp:425] conv7_2 <- conv7_1
I0311 14:12:13.394626   660 net.cpp:399] conv7_2 -> conv7_2
I0311 14:12:13.398655   660 net.cpp:141] Setting up conv7_2
I0311 14:12:13.398670   660 net.cpp:148] Top shape: 8 256 8 8 (131072)
I0311 14:12:13.398674   660 net.cpp:156] Memory required for data: 5247956704
I0311 14:12:13.398681   660 layer_factory.hpp:77] Creating layer conv7_2_relu
I0311 14:12:13.398689   660 net.cpp:91] Creating Layer conv7_2_relu
I0311 14:12:13.398692   660 net.cpp:425] conv7_2_relu <- conv7_2
I0311 14:12:13.398699   660 net.cpp:386] conv7_2_relu -> conv7_2 (in-place)
I0311 14:12:13.399055   660 net.cpp:141] Setting up conv7_2_relu
I0311 14:12:13.399071   660 net.cpp:148] Top shape: 8 256 8 8 (131072)
I0311 14:12:13.399076   660 net.cpp:156] Memory required for data: 5248480992
I0311 14:12:13.399080   660 layer_factory.hpp:77] Creating layer conv7_2_conv7_2_relu_0_split
I0311 14:12:13.399087   660 net.cpp:91] Creating Layer conv7_2_conv7_2_relu_0_split
I0311 14:12:13.399091   660 net.cpp:425] conv7_2_conv7_2_relu_0_split <- conv7_2
I0311 14:12:13.399097   660 net.cpp:399] conv7_2_conv7_2_relu_0_split -> conv7_2_conv7_2_relu_0_split_0
I0311 14:12:13.399104   660 net.cpp:399] conv7_2_conv7_2_relu_0_split -> conv7_2_conv7_2_relu_0_split_1
I0311 14:12:13.399114   660 net.cpp:399] conv7_2_conv7_2_relu_0_split -> conv7_2_conv7_2_relu_0_split_2
I0311 14:12:13.399122   660 net.cpp:399] conv7_2_conv7_2_relu_0_split -> conv7_2_conv7_2_relu_0_split_3
I0311 14:12:13.399193   660 net.cpp:141] Setting up conv7_2_conv7_2_relu_0_split
I0311 14:12:13.399201   660 net.cpp:148] Top shape: 8 256 8 8 (131072)
I0311 14:12:13.399206   660 net.cpp:148] Top shape: 8 256 8 8 (131072)
I0311 14:12:13.399212   660 net.cpp:148] Top shape: 8 256 8 8 (131072)
I0311 14:12:13.399217   660 net.cpp:148] Top shape: 8 256 8 8 (131072)
I0311 14:12:13.399221   660 net.cpp:156] Memory required for data: 5250578144
I0311 14:12:13.399225   660 layer_factory.hpp:77] Creating layer conv8_1
I0311 14:12:13.399238   660 net.cpp:91] Creating Layer conv8_1
I0311 14:12:13.399243   660 net.cpp:425] conv8_1 <- conv7_2_conv7_2_relu_0_split_0
I0311 14:12:13.399251   660 net.cpp:399] conv8_1 -> conv8_1
I0311 14:12:13.400648   660 net.cpp:141] Setting up conv8_1
I0311 14:12:13.400660   660 net.cpp:148] Top shape: 8 128 8 8 (65536)
I0311 14:12:13.400665   660 net.cpp:156] Memory required for data: 5250840288
I0311 14:12:13.400671   660 layer_factory.hpp:77] Creating layer conv8_1_relu
I0311 14:12:13.400678   660 net.cpp:91] Creating Layer conv8_1_relu
I0311 14:12:13.400683   660 net.cpp:425] conv8_1_relu <- conv8_1
I0311 14:12:13.400691   660 net.cpp:386] conv8_1_relu -> conv8_1 (in-place)
I0311 14:12:13.401042   660 net.cpp:141] Setting up conv8_1_relu
I0311 14:12:13.401056   660 net.cpp:148] Top shape: 8 128 8 8 (65536)
I0311 14:12:13.401058   660 net.cpp:156] Memory required for data: 5251102432
I0311 14:12:13.401063   660 layer_factory.hpp:77] Creating layer conv8_2
I0311 14:12:13.401075   660 net.cpp:91] Creating Layer conv8_2
I0311 14:12:13.401087   660 net.cpp:425] conv8_2 <- conv8_1
I0311 14:12:13.401098   660 net.cpp:399] conv8_2 -> conv8_2
I0311 14:12:13.405156   660 net.cpp:141] Setting up conv8_2
I0311 14:12:13.405169   660 net.cpp:148] Top shape: 8 256 4 4 (32768)
I0311 14:12:13.405174   660 net.cpp:156] Memory required for data: 5251233504
I0311 14:12:13.405180   660 layer_factory.hpp:77] Creating layer conv8_2_relu
I0311 14:12:13.405190   660 net.cpp:91] Creating Layer conv8_2_relu
I0311 14:12:13.405195   660 net.cpp:425] conv8_2_relu <- conv8_2
I0311 14:12:13.405202   660 net.cpp:386] conv8_2_relu -> conv8_2 (in-place)
I0311 14:12:13.405374   660 net.cpp:141] Setting up conv8_2_relu
I0311 14:12:13.405383   660 net.cpp:148] Top shape: 8 256 4 4 (32768)
I0311 14:12:13.405387   660 net.cpp:156] Memory required for data: 5251364576
I0311 14:12:13.405391   660 layer_factory.hpp:77] Creating layer conv8_2_conv8_2_relu_0_split
I0311 14:12:13.405400   660 net.cpp:91] Creating Layer conv8_2_conv8_2_relu_0_split
I0311 14:12:13.405405   660 net.cpp:425] conv8_2_conv8_2_relu_0_split <- conv8_2
I0311 14:12:13.405416   660 net.cpp:399] conv8_2_conv8_2_relu_0_split -> conv8_2_conv8_2_relu_0_split_0
I0311 14:12:13.405423   660 net.cpp:399] conv8_2_conv8_2_relu_0_split -> conv8_2_conv8_2_relu_0_split_1
I0311 14:12:13.405431   660 net.cpp:399] conv8_2_conv8_2_relu_0_split -> conv8_2_conv8_2_relu_0_split_2
I0311 14:12:13.405437   660 net.cpp:399] conv8_2_conv8_2_relu_0_split -> conv8_2_conv8_2_relu_0_split_3
I0311 14:12:13.405506   660 net.cpp:141] Setting up conv8_2_conv8_2_relu_0_split
I0311 14:12:13.405516   660 net.cpp:148] Top shape: 8 256 4 4 (32768)
I0311 14:12:13.405521   660 net.cpp:148] Top shape: 8 256 4 4 (32768)
I0311 14:12:13.405526   660 net.cpp:148] Top shape: 8 256 4 4 (32768)
I0311 14:12:13.405530   660 net.cpp:148] Top shape: 8 256 4 4 (32768)
I0311 14:12:13.405534   660 net.cpp:156] Memory required for data: 5251888864
I0311 14:12:13.405539   660 layer_factory.hpp:77] Creating layer conv9_1
I0311 14:12:13.405550   660 net.cpp:91] Creating Layer conv9_1
I0311 14:12:13.405555   660 net.cpp:425] conv9_1 <- conv8_2_conv8_2_relu_0_split_0
I0311 14:12:13.405563   660 net.cpp:399] conv9_1 -> conv9_1
I0311 14:12:13.407817   660 net.cpp:141] Setting up conv9_1
I0311 14:12:13.407832   660 net.cpp:148] Top shape: 8 128 4 4 (16384)
I0311 14:12:13.407836   660 net.cpp:156] Memory required for data: 5251954400
I0311 14:12:13.407843   660 layer_factory.hpp:77] Creating layer conv9_1_relu
I0311 14:12:13.407856   660 net.cpp:91] Creating Layer conv9_1_relu
I0311 14:12:13.407860   660 net.cpp:425] conv9_1_relu <- conv9_1
I0311 14:12:13.407866   660 net.cpp:386] conv9_1_relu -> conv9_1 (in-place)
I0311 14:12:13.408228   660 net.cpp:141] Setting up conv9_1_relu
I0311 14:12:13.408241   660 net.cpp:148] Top shape: 8 128 4 4 (16384)
I0311 14:12:13.408246   660 net.cpp:156] Memory required for data: 5252019936
I0311 14:12:13.408251   660 layer_factory.hpp:77] Creating layer conv9_2
I0311 14:12:13.408263   660 net.cpp:91] Creating Layer conv9_2
I0311 14:12:13.408269   660 net.cpp:425] conv9_2 <- conv9_1
I0311 14:12:13.408279   660 net.cpp:399] conv9_2 -> conv9_2
I0311 14:12:13.412148   660 net.cpp:141] Setting up conv9_2
I0311 14:12:13.412163   660 net.cpp:148] Top shape: 8 256 2 2 (8192)
I0311 14:12:13.412168   660 net.cpp:156] Memory required for data: 5252052704
I0311 14:12:13.412174   660 layer_factory.hpp:77] Creating layer conv9_2_relu
I0311 14:12:13.412180   660 net.cpp:91] Creating Layer conv9_2_relu
I0311 14:12:13.412184   660 net.cpp:425] conv9_2_relu <- conv9_2
I0311 14:12:13.412190   660 net.cpp:386] conv9_2_relu -> conv9_2 (in-place)
I0311 14:12:13.412528   660 net.cpp:141] Setting up conv9_2_relu
I0311 14:12:13.412541   660 net.cpp:148] Top shape: 8 256 2 2 (8192)
I0311 14:12:13.412545   660 net.cpp:156] Memory required for data: 5252085472
I0311 14:12:13.412549   660 layer_factory.hpp:77] Creating layer conv9_2_conv9_2_relu_0_split
I0311 14:12:13.412555   660 net.cpp:91] Creating Layer conv9_2_conv9_2_relu_0_split
I0311 14:12:13.412566   660 net.cpp:425] conv9_2_conv9_2_relu_0_split <- conv9_2
I0311 14:12:13.412574   660 net.cpp:399] conv9_2_conv9_2_relu_0_split -> conv9_2_conv9_2_relu_0_split_0
I0311 14:12:13.412581   660 net.cpp:399] conv9_2_conv9_2_relu_0_split -> conv9_2_conv9_2_relu_0_split_1
I0311 14:12:13.412595   660 net.cpp:399] conv9_2_conv9_2_relu_0_split -> conv9_2_conv9_2_relu_0_split_2
I0311 14:12:13.412603   660 net.cpp:399] conv9_2_conv9_2_relu_0_split -> conv9_2_conv9_2_relu_0_split_3
I0311 14:12:13.412675   660 net.cpp:141] Setting up conv9_2_conv9_2_relu_0_split
I0311 14:12:13.412683   660 net.cpp:148] Top shape: 8 256 2 2 (8192)
I0311 14:12:13.412688   660 net.cpp:148] Top shape: 8 256 2 2 (8192)
I0311 14:12:13.412693   660 net.cpp:148] Top shape: 8 256 2 2 (8192)
I0311 14:12:13.412698   660 net.cpp:148] Top shape: 8 256 2 2 (8192)
I0311 14:12:13.412701   660 net.cpp:156] Memory required for data: 5252216544
I0311 14:12:13.412705   660 layer_factory.hpp:77] Creating layer pool6
I0311 14:12:13.412719   660 net.cpp:91] Creating Layer pool6
I0311 14:12:13.412724   660 net.cpp:425] pool6 <- conv9_2_conv9_2_relu_0_split_0
I0311 14:12:13.412730   660 net.cpp:399] pool6 -> pool6
I0311 14:12:13.413125   660 net.cpp:141] Setting up pool6
I0311 14:12:13.413136   660 net.cpp:148] Top shape: 8 256 1 1 (2048)
I0311 14:12:13.413141   660 net.cpp:156] Memory required for data: 5252224736
I0311 14:12:13.413144   660 layer_factory.hpp:77] Creating layer pool6_pool6_0_split
I0311 14:12:13.413152   660 net.cpp:91] Creating Layer pool6_pool6_0_split
I0311 14:12:13.413156   660 net.cpp:425] pool6_pool6_0_split <- pool6
I0311 14:12:13.413161   660 net.cpp:399] pool6_pool6_0_split -> pool6_pool6_0_split_0
I0311 14:12:13.413172   660 net.cpp:399] pool6_pool6_0_split -> pool6_pool6_0_split_1
I0311 14:12:13.413178   660 net.cpp:399] pool6_pool6_0_split -> pool6_pool6_0_split_2
I0311 14:12:13.413244   660 net.cpp:141] Setting up pool6_pool6_0_split
I0311 14:12:13.413254   660 net.cpp:148] Top shape: 8 256 1 1 (2048)
I0311 14:12:13.413257   660 net.cpp:148] Top shape: 8 256 1 1 (2048)
I0311 14:12:13.413262   660 net.cpp:148] Top shape: 8 256 1 1 (2048)
I0311 14:12:13.413266   660 net.cpp:156] Memory required for data: 5252249312
I0311 14:12:13.413270   660 layer_factory.hpp:77] Creating layer conv4_3_norm
I0311 14:12:13.413283   660 net.cpp:91] Creating Layer conv4_3_norm
I0311 14:12:13.413290   660 net.cpp:425] conv4_3_norm <- conv4_3_relu4_3_0_split_1
I0311 14:12:13.413295   660 net.cpp:399] conv4_3_norm -> conv4_3_norm
I0311 14:12:13.413470   660 net.cpp:141] Setting up conv4_3_norm
I0311 14:12:13.413480   660 net.cpp:148] Top shape: 8 512 63 63 (16257024)
I0311 14:12:13.413485   660 net.cpp:156] Memory required for data: 5317277408
I0311 14:12:13.413491   660 layer_factory.hpp:77] Creating layer conv4_3_norm_conv4_3_norm_0_split
I0311 14:12:13.413501   660 net.cpp:91] Creating Layer conv4_3_norm_conv4_3_norm_0_split
I0311 14:12:13.413506   660 net.cpp:425] conv4_3_norm_conv4_3_norm_0_split <- conv4_3_norm
I0311 14:12:13.413511   660 net.cpp:399] conv4_3_norm_conv4_3_norm_0_split -> conv4_3_norm_conv4_3_norm_0_split_0
I0311 14:12:13.413519   660 net.cpp:399] conv4_3_norm_conv4_3_norm_0_split -> conv4_3_norm_conv4_3_norm_0_split_1
I0311 14:12:13.413527   660 net.cpp:399] conv4_3_norm_conv4_3_norm_0_split -> conv4_3_norm_conv4_3_norm_0_split_2
I0311 14:12:13.413578   660 net.cpp:141] Setting up conv4_3_norm_conv4_3_norm_0_split
I0311 14:12:13.413585   660 net.cpp:148] Top shape: 8 512 63 63 (16257024)
I0311 14:12:13.413590   660 net.cpp:148] Top shape: 8 512 63 63 (16257024)
I0311 14:12:13.413595   660 net.cpp:148] Top shape: 8 512 63 63 (16257024)
I0311 14:12:13.413599   660 net.cpp:156] Memory required for data: 5512361696
I0311 14:12:13.413602   660 layer_factory.hpp:77] Creating layer conv4_3_norm_mbox_loc
I0311 14:12:13.413614   660 net.cpp:91] Creating Layer conv4_3_norm_mbox_loc
I0311 14:12:13.413619   660 net.cpp:425] conv4_3_norm_mbox_loc <- conv4_3_norm_conv4_3_norm_0_split_0
I0311 14:12:13.413628   660 net.cpp:399] conv4_3_norm_mbox_loc -> conv4_3_norm_mbox_loc
I0311 14:12:13.415041   660 net.cpp:141] Setting up conv4_3_norm_mbox_loc
I0311 14:12:13.415053   660 net.cpp:148] Top shape: 8 12 63 63 (381024)
I0311 14:12:13.415057   660 net.cpp:156] Memory required for data: 5513885792
I0311 14:12:13.415065   660 layer_factory.hpp:77] Creating layer conv4_3_norm_mbox_loc_perm
I0311 14:12:13.415086   660 net.cpp:91] Creating Layer conv4_3_norm_mbox_loc_perm
I0311 14:12:13.415091   660 net.cpp:425] conv4_3_norm_mbox_loc_perm <- conv4_3_norm_mbox_loc
I0311 14:12:13.415099   660 net.cpp:399] conv4_3_norm_mbox_loc_perm -> conv4_3_norm_mbox_loc_perm
I0311 14:12:13.415230   660 net.cpp:141] Setting up conv4_3_norm_mbox_loc_perm
I0311 14:12:13.415238   660 net.cpp:148] Top shape: 8 63 63 12 (381024)
I0311 14:12:13.415242   660 net.cpp:156] Memory required for data: 5515409888
I0311 14:12:13.415246   660 layer_factory.hpp:77] Creating layer conv4_3_norm_mbox_loc_flat
I0311 14:12:13.415256   660 net.cpp:91] Creating Layer conv4_3_norm_mbox_loc_flat
I0311 14:12:13.415261   660 net.cpp:425] conv4_3_norm_mbox_loc_flat <- conv4_3_norm_mbox_loc_perm
I0311 14:12:13.415267   660 net.cpp:399] conv4_3_norm_mbox_loc_flat -> conv4_3_norm_mbox_loc_flat
I0311 14:12:13.415304   660 net.cpp:141] Setting up conv4_3_norm_mbox_loc_flat
I0311 14:12:13.415313   660 net.cpp:148] Top shape: 8 47628 (381024)
I0311 14:12:13.415318   660 net.cpp:156] Memory required for data: 5516933984
I0311 14:12:13.415323   660 layer_factory.hpp:77] Creating layer conv4_3_norm_mbox_conf
I0311 14:12:13.415331   660 net.cpp:91] Creating Layer conv4_3_norm_mbox_conf
I0311 14:12:13.415336   660 net.cpp:425] conv4_3_norm_mbox_conf <- conv4_3_norm_conv4_3_norm_0_split_1
I0311 14:12:13.415346   660 net.cpp:399] conv4_3_norm_mbox_conf -> conv4_3_norm_mbox_conf
I0311 14:12:13.419143   660 net.cpp:141] Setting up conv4_3_norm_mbox_conf
I0311 14:12:13.419158   660 net.cpp:148] Top shape: 8 63 63 63 (2000376)
I0311 14:12:13.419162   660 net.cpp:156] Memory required for data: 5524935488
I0311 14:12:13.419169   660 layer_factory.hpp:77] Creating layer conv4_3_norm_mbox_conf_perm
I0311 14:12:13.419178   660 net.cpp:91] Creating Layer conv4_3_norm_mbox_conf_perm
I0311 14:12:13.419183   660 net.cpp:425] conv4_3_norm_mbox_conf_perm <- conv4_3_norm_mbox_conf
I0311 14:12:13.419193   660 net.cpp:399] conv4_3_norm_mbox_conf_perm -> conv4_3_norm_mbox_conf_perm
I0311 14:12:13.419304   660 net.cpp:141] Setting up conv4_3_norm_mbox_conf_perm
I0311 14:12:13.419313   660 net.cpp:148] Top shape: 8 63 63 63 (2000376)
I0311 14:12:13.419317   660 net.cpp:156] Memory required for data: 5532936992
I0311 14:12:13.419322   660 layer_factory.hpp:77] Creating layer conv4_3_norm_mbox_conf_flat
I0311 14:12:13.419329   660 net.cpp:91] Creating Layer conv4_3_norm_mbox_conf_flat
I0311 14:12:13.419334   660 net.cpp:425] conv4_3_norm_mbox_conf_flat <- conv4_3_norm_mbox_conf_perm
I0311 14:12:13.419342   660 net.cpp:399] conv4_3_norm_mbox_conf_flat -> conv4_3_norm_mbox_conf_flat
I0311 14:12:13.419371   660 net.cpp:141] Setting up conv4_3_norm_mbox_conf_flat
I0311 14:12:13.419379   660 net.cpp:148] Top shape: 8 250047 (2000376)
I0311 14:12:13.419383   660 net.cpp:156] Memory required for data: 5540938496
I0311 14:12:13.419386   660 layer_factory.hpp:77] Creating layer conv4_3_norm_mbox_priorbox
I0311 14:12:13.419399   660 net.cpp:91] Creating Layer conv4_3_norm_mbox_priorbox
I0311 14:12:13.419404   660 net.cpp:425] conv4_3_norm_mbox_priorbox <- conv4_3_norm_conv4_3_norm_0_split_2
I0311 14:12:13.419410   660 net.cpp:425] conv4_3_norm_mbox_priorbox <- data_data_0_split_1
I0311 14:12:13.419417   660 net.cpp:399] conv4_3_norm_mbox_priorbox -> conv4_3_norm_mbox_priorbox
I0311 14:12:13.419457   660 net.cpp:141] Setting up conv4_3_norm_mbox_priorbox
I0311 14:12:13.419466   660 net.cpp:148] Top shape: 1 2 47628 (95256)
I0311 14:12:13.419469   660 net.cpp:156] Memory required for data: 5541319520
I0311 14:12:13.419473   660 layer_factory.hpp:77] Creating layer fc7_mbox_loc
I0311 14:12:13.419486   660 net.cpp:91] Creating Layer fc7_mbox_loc
I0311 14:12:13.419491   660 net.cpp:425] fc7_mbox_loc <- fc7_relu7_0_split_1
I0311 14:12:13.419507   660 net.cpp:399] fc7_mbox_loc -> fc7_mbox_loc
I0311 14:12:13.423025   660 net.cpp:141] Setting up fc7_mbox_loc
I0311 14:12:13.423038   660 net.cpp:148] Top shape: 8 24 32 32 (196608)
I0311 14:12:13.423043   660 net.cpp:156] Memory required for data: 5542105952
I0311 14:12:13.423051   660 layer_factory.hpp:77] Creating layer fc7_mbox_loc_perm
I0311 14:12:13.423059   660 net.cpp:91] Creating Layer fc7_mbox_loc_perm
I0311 14:12:13.423065   660 net.cpp:425] fc7_mbox_loc_perm <- fc7_mbox_loc
I0311 14:12:13.423074   660 net.cpp:399] fc7_mbox_loc_perm -> fc7_mbox_loc_perm
I0311 14:12:13.423195   660 net.cpp:141] Setting up fc7_mbox_loc_perm
I0311 14:12:13.423204   660 net.cpp:148] Top shape: 8 32 32 24 (196608)
I0311 14:12:13.423208   660 net.cpp:156] Memory required for data: 5542892384
I0311 14:12:13.423213   660 layer_factory.hpp:77] Creating layer fc7_mbox_loc_flat
I0311 14:12:13.423219   660 net.cpp:91] Creating Layer fc7_mbox_loc_flat
I0311 14:12:13.423224   660 net.cpp:425] fc7_mbox_loc_flat <- fc7_mbox_loc_perm
I0311 14:12:13.423230   660 net.cpp:399] fc7_mbox_loc_flat -> fc7_mbox_loc_flat
I0311 14:12:13.423261   660 net.cpp:141] Setting up fc7_mbox_loc_flat
I0311 14:12:13.423269   660 net.cpp:148] Top shape: 8 24576 (196608)
I0311 14:12:13.423274   660 net.cpp:156] Memory required for data: 5543678816
I0311 14:12:13.423276   660 layer_factory.hpp:77] Creating layer fc7_mbox_conf
I0311 14:12:13.423288   660 net.cpp:91] Creating Layer fc7_mbox_conf
I0311 14:12:13.423293   660 net.cpp:425] fc7_mbox_conf <- fc7_relu7_0_split_2
I0311 14:12:13.423303   660 net.cpp:399] fc7_mbox_conf -> fc7_mbox_conf
I0311 14:12:13.435745   660 net.cpp:141] Setting up fc7_mbox_conf
I0311 14:12:13.435757   660 net.cpp:148] Top shape: 8 126 32 32 (1032192)
I0311 14:12:13.435761   660 net.cpp:156] Memory required for data: 5547807584
I0311 14:12:13.435768   660 layer_factory.hpp:77] Creating layer fc7_mbox_conf_perm
I0311 14:12:13.435778   660 net.cpp:91] Creating Layer fc7_mbox_conf_perm
I0311 14:12:13.435782   660 net.cpp:425] fc7_mbox_conf_perm <- fc7_mbox_conf
I0311 14:12:13.435792   660 net.cpp:399] fc7_mbox_conf_perm -> fc7_mbox_conf_perm
I0311 14:12:13.435911   660 net.cpp:141] Setting up fc7_mbox_conf_perm
I0311 14:12:13.435922   660 net.cpp:148] Top shape: 8 32 32 126 (1032192)
I0311 14:12:13.435926   660 net.cpp:156] Memory required for data: 5551936352
I0311 14:12:13.435930   660 layer_factory.hpp:77] Creating layer fc7_mbox_conf_flat
I0311 14:12:13.435937   660 net.cpp:91] Creating Layer fc7_mbox_conf_flat
I0311 14:12:13.435942   660 net.cpp:425] fc7_mbox_conf_flat <- fc7_mbox_conf_perm
I0311 14:12:13.435950   660 net.cpp:399] fc7_mbox_conf_flat -> fc7_mbox_conf_flat
I0311 14:12:13.435981   660 net.cpp:141] Setting up fc7_mbox_conf_flat
I0311 14:12:13.435993   660 net.cpp:148] Top shape: 8 129024 (1032192)
I0311 14:12:13.435997   660 net.cpp:156] Memory required for data: 5556065120
I0311 14:12:13.436002   660 layer_factory.hpp:77] Creating layer fc7_mbox_priorbox
I0311 14:12:13.436009   660 net.cpp:91] Creating Layer fc7_mbox_priorbox
I0311 14:12:13.436014   660 net.cpp:425] fc7_mbox_priorbox <- fc7_relu7_0_split_3
I0311 14:12:13.436019   660 net.cpp:425] fc7_mbox_priorbox <- data_data_0_split_2
I0311 14:12:13.436025   660 net.cpp:399] fc7_mbox_priorbox -> fc7_mbox_priorbox
I0311 14:12:13.436056   660 net.cpp:141] Setting up fc7_mbox_priorbox
I0311 14:12:13.436064   660 net.cpp:148] Top shape: 1 2 24576 (49152)
I0311 14:12:13.436069   660 net.cpp:156] Memory required for data: 5556261728
I0311 14:12:13.436079   660 layer_factory.hpp:77] Creating layer conv6_2_mbox_loc
I0311 14:12:13.436090   660 net.cpp:91] Creating Layer conv6_2_mbox_loc
I0311 14:12:13.436096   660 net.cpp:425] conv6_2_mbox_loc <- conv6_2_conv6_2_relu_0_split_1
I0311 14:12:13.436105   660 net.cpp:399] conv6_2_mbox_loc -> conv6_2_mbox_loc
I0311 14:12:13.438730   660 net.cpp:141] Setting up conv6_2_mbox_loc
I0311 14:12:13.438743   660 net.cpp:148] Top shape: 8 24 16 16 (49152)
I0311 14:12:13.438753   660 net.cpp:156] Memory required for data: 5556458336
I0311 14:12:13.438760   660 layer_factory.hpp:77] Creating layer conv6_2_mbox_loc_perm
I0311 14:12:13.438769   660 net.cpp:91] Creating Layer conv6_2_mbox_loc_perm
I0311 14:12:13.438774   660 net.cpp:425] conv6_2_mbox_loc_perm <- conv6_2_mbox_loc
I0311 14:12:13.438781   660 net.cpp:399] conv6_2_mbox_loc_perm -> conv6_2_mbox_loc_perm
I0311 14:12:13.438894   660 net.cpp:141] Setting up conv6_2_mbox_loc_perm
I0311 14:12:13.438904   660 net.cpp:148] Top shape: 8 16 16 24 (49152)
I0311 14:12:13.438907   660 net.cpp:156] Memory required for data: 5556654944
I0311 14:12:13.438910   660 layer_factory.hpp:77] Creating layer conv6_2_mbox_loc_flat
I0311 14:12:13.438917   660 net.cpp:91] Creating Layer conv6_2_mbox_loc_flat
I0311 14:12:13.438922   660 net.cpp:425] conv6_2_mbox_loc_flat <- conv6_2_mbox_loc_perm
I0311 14:12:13.438930   660 net.cpp:399] conv6_2_mbox_loc_flat -> conv6_2_mbox_loc_flat
I0311 14:12:13.438959   660 net.cpp:141] Setting up conv6_2_mbox_loc_flat
I0311 14:12:13.438966   660 net.cpp:148] Top shape: 8 6144 (49152)
I0311 14:12:13.438971   660 net.cpp:156] Memory required for data: 5556851552
I0311 14:12:13.438974   660 layer_factory.hpp:77] Creating layer conv6_2_mbox_conf
I0311 14:12:13.438993   660 net.cpp:91] Creating Layer conv6_2_mbox_conf
I0311 14:12:13.438999   660 net.cpp:425] conv6_2_mbox_conf <- conv6_2_conv6_2_relu_0_split_2
I0311 14:12:13.439008   660 net.cpp:399] conv6_2_mbox_conf -> conv6_2_mbox_conf
I0311 14:12:13.445796   660 net.cpp:141] Setting up conv6_2_mbox_conf
I0311 14:12:13.445808   660 net.cpp:148] Top shape: 8 126 16 16 (258048)
I0311 14:12:13.445812   660 net.cpp:156] Memory required for data: 5557883744
I0311 14:12:13.445819   660 layer_factory.hpp:77] Creating layer conv6_2_mbox_conf_perm
I0311 14:12:13.445828   660 net.cpp:91] Creating Layer conv6_2_mbox_conf_perm
I0311 14:12:13.445833   660 net.cpp:425] conv6_2_mbox_conf_perm <- conv6_2_mbox_conf
I0311 14:12:13.445840   660 net.cpp:399] conv6_2_mbox_conf_perm -> conv6_2_mbox_conf_perm
I0311 14:12:13.445951   660 net.cpp:141] Setting up conv6_2_mbox_conf_perm
I0311 14:12:13.445960   660 net.cpp:148] Top shape: 8 16 16 126 (258048)
I0311 14:12:13.445965   660 net.cpp:156] Memory required for data: 5558915936
I0311 14:12:13.445968   660 layer_factory.hpp:77] Creating layer conv6_2_mbox_conf_flat
I0311 14:12:13.445976   660 net.cpp:91] Creating Layer conv6_2_mbox_conf_flat
I0311 14:12:13.445981   660 net.cpp:425] conv6_2_mbox_conf_flat <- conv6_2_mbox_conf_perm
I0311 14:12:13.445991   660 net.cpp:399] conv6_2_mbox_conf_flat -> conv6_2_mbox_conf_flat
I0311 14:12:13.446024   660 net.cpp:141] Setting up conv6_2_mbox_conf_flat
I0311 14:12:13.446033   660 net.cpp:148] Top shape: 8 32256 (258048)
I0311 14:12:13.446036   660 net.cpp:156] Memory required for data: 5559948128
I0311 14:12:13.446039   660 layer_factory.hpp:77] Creating layer conv6_2_mbox_priorbox
I0311 14:12:13.446048   660 net.cpp:91] Creating Layer conv6_2_mbox_priorbox
I0311 14:12:13.446053   660 net.cpp:425] conv6_2_mbox_priorbox <- conv6_2_conv6_2_relu_0_split_3
I0311 14:12:13.446060   660 net.cpp:425] conv6_2_mbox_priorbox <- data_data_0_split_3
I0311 14:12:13.446068   660 net.cpp:399] conv6_2_mbox_priorbox -> conv6_2_mbox_priorbox
I0311 14:12:13.446100   660 net.cpp:141] Setting up conv6_2_mbox_priorbox
I0311 14:12:13.446108   660 net.cpp:148] Top shape: 1 2 6144 (12288)
I0311 14:12:13.446111   660 net.cpp:156] Memory required for data: 5559997280
I0311 14:12:13.446115   660 layer_factory.hpp:77] Creating layer conv7_2_mbox_loc
I0311 14:12:13.446127   660 net.cpp:91] Creating Layer conv7_2_mbox_loc
I0311 14:12:13.446132   660 net.cpp:425] conv7_2_mbox_loc <- conv7_2_conv7_2_relu_0_split_1
I0311 14:12:13.446142   660 net.cpp:399] conv7_2_mbox_loc -> conv7_2_mbox_loc
I0311 14:12:13.447947   660 net.cpp:141] Setting up conv7_2_mbox_loc
I0311 14:12:13.447959   660 net.cpp:148] Top shape: 8 24 8 8 (12288)
I0311 14:12:13.447964   660 net.cpp:156] Memory required for data: 5560046432
I0311 14:12:13.447971   660 layer_factory.hpp:77] Creating layer conv7_2_mbox_loc_perm
I0311 14:12:13.447991   660 net.cpp:91] Creating Layer conv7_2_mbox_loc_perm
I0311 14:12:13.447999   660 net.cpp:425] conv7_2_mbox_loc_perm <- conv7_2_mbox_loc
I0311 14:12:13.448009   660 net.cpp:399] conv7_2_mbox_loc_perm -> conv7_2_mbox_loc_perm
I0311 14:12:13.448127   660 net.cpp:141] Setting up conv7_2_mbox_loc_perm
I0311 14:12:13.448137   660 net.cpp:148] Top shape: 8 8 8 24 (12288)
I0311 14:12:13.448142   660 net.cpp:156] Memory required for data: 5560095584
I0311 14:12:13.448145   660 layer_factory.hpp:77] Creating layer conv7_2_mbox_loc_flat
I0311 14:12:13.448153   660 net.cpp:91] Creating Layer conv7_2_mbox_loc_flat
I0311 14:12:13.448156   660 net.cpp:425] conv7_2_mbox_loc_flat <- conv7_2_mbox_loc_perm
I0311 14:12:13.448163   660 net.cpp:399] conv7_2_mbox_loc_flat -> conv7_2_mbox_loc_flat
I0311 14:12:13.448195   660 net.cpp:141] Setting up conv7_2_mbox_loc_flat
I0311 14:12:13.448202   660 net.cpp:148] Top shape: 8 1536 (12288)
I0311 14:12:13.448206   660 net.cpp:156] Memory required for data: 5560144736
I0311 14:12:13.448210   660 layer_factory.hpp:77] Creating layer conv7_2_mbox_conf
I0311 14:12:13.448222   660 net.cpp:91] Creating Layer conv7_2_mbox_conf
I0311 14:12:13.448227   660 net.cpp:425] conv7_2_mbox_conf <- conv7_2_conv7_2_relu_0_split_2
I0311 14:12:13.448236   660 net.cpp:399] conv7_2_mbox_conf -> conv7_2_mbox_conf
I0311 14:12:13.452204   660 net.cpp:141] Setting up conv7_2_mbox_conf
I0311 14:12:13.452217   660 net.cpp:148] Top shape: 8 126 8 8 (64512)
I0311 14:12:13.452221   660 net.cpp:156] Memory required for data: 5560402784
I0311 14:12:13.452229   660 layer_factory.hpp:77] Creating layer conv7_2_mbox_conf_perm
I0311 14:12:13.452239   660 net.cpp:91] Creating Layer conv7_2_mbox_conf_perm
I0311 14:12:13.452242   660 net.cpp:425] conv7_2_mbox_conf_perm <- conv7_2_mbox_conf
I0311 14:12:13.452250   660 net.cpp:399] conv7_2_mbox_conf_perm -> conv7_2_mbox_conf_perm
I0311 14:12:13.452369   660 net.cpp:141] Setting up conv7_2_mbox_conf_perm
I0311 14:12:13.452378   660 net.cpp:148] Top shape: 8 8 8 126 (64512)
I0311 14:12:13.452383   660 net.cpp:156] Memory required for data: 5560660832
I0311 14:12:13.452386   660 layer_factory.hpp:77] Creating layer conv7_2_mbox_conf_flat
I0311 14:12:13.452395   660 net.cpp:91] Creating Layer conv7_2_mbox_conf_flat
I0311 14:12:13.452400   660 net.cpp:425] conv7_2_mbox_conf_flat <- conv7_2_mbox_conf_perm
I0311 14:12:13.452407   660 net.cpp:399] conv7_2_mbox_conf_flat -> conv7_2_mbox_conf_flat
I0311 14:12:13.452440   660 net.cpp:141] Setting up conv7_2_mbox_conf_flat
I0311 14:12:13.452448   660 net.cpp:148] Top shape: 8 8064 (64512)
I0311 14:12:13.452452   660 net.cpp:156] Memory required for data: 5560918880
I0311 14:12:13.452456   660 layer_factory.hpp:77] Creating layer conv7_2_mbox_priorbox
I0311 14:12:13.452463   660 net.cpp:91] Creating Layer conv7_2_mbox_priorbox
I0311 14:12:13.452468   660 net.cpp:425] conv7_2_mbox_priorbox <- conv7_2_conv7_2_relu_0_split_3
I0311 14:12:13.452474   660 net.cpp:425] conv7_2_mbox_priorbox <- data_data_0_split_4
I0311 14:12:13.452483   660 net.cpp:399] conv7_2_mbox_priorbox -> conv7_2_mbox_priorbox
I0311 14:12:13.452514   660 net.cpp:141] Setting up conv7_2_mbox_priorbox
I0311 14:12:13.452522   660 net.cpp:148] Top shape: 1 2 1536 (3072)
I0311 14:12:13.452527   660 net.cpp:156] Memory required for data: 5560931168
I0311 14:12:13.452529   660 layer_factory.hpp:77] Creating layer conv8_2_mbox_loc
I0311 14:12:13.452543   660 net.cpp:91] Creating Layer conv8_2_mbox_loc
I0311 14:12:13.452548   660 net.cpp:425] conv8_2_mbox_loc <- conv8_2_conv8_2_relu_0_split_1
I0311 14:12:13.452556   660 net.cpp:399] conv8_2_mbox_loc -> conv8_2_mbox_loc
I0311 14:12:13.454383   660 net.cpp:141] Setting up conv8_2_mbox_loc
I0311 14:12:13.454396   660 net.cpp:148] Top shape: 8 24 4 4 (3072)
I0311 14:12:13.454401   660 net.cpp:156] Memory required for data: 5560943456
I0311 14:12:13.454419   660 layer_factory.hpp:77] Creating layer conv8_2_mbox_loc_perm
I0311 14:12:13.454430   660 net.cpp:91] Creating Layer conv8_2_mbox_loc_perm
I0311 14:12:13.454442   660 net.cpp:425] conv8_2_mbox_loc_perm <- conv8_2_mbox_loc
I0311 14:12:13.454449   660 net.cpp:399] conv8_2_mbox_loc_perm -> conv8_2_mbox_loc_perm
I0311 14:12:13.454583   660 net.cpp:141] Setting up conv8_2_mbox_loc_perm
I0311 14:12:13.454592   660 net.cpp:148] Top shape: 8 4 4 24 (3072)
I0311 14:12:13.454596   660 net.cpp:156] Memory required for data: 5560955744
I0311 14:12:13.454601   660 layer_factory.hpp:77] Creating layer conv8_2_mbox_loc_flat
I0311 14:12:13.454609   660 net.cpp:91] Creating Layer conv8_2_mbox_loc_flat
I0311 14:12:13.454614   660 net.cpp:425] conv8_2_mbox_loc_flat <- conv8_2_mbox_loc_perm
I0311 14:12:13.454627   660 net.cpp:399] conv8_2_mbox_loc_flat -> conv8_2_mbox_loc_flat
I0311 14:12:13.454656   660 net.cpp:141] Setting up conv8_2_mbox_loc_flat
I0311 14:12:13.454664   660 net.cpp:148] Top shape: 8 384 (3072)
I0311 14:12:13.454668   660 net.cpp:156] Memory required for data: 5560968032
I0311 14:12:13.454673   660 layer_factory.hpp:77] Creating layer conv8_2_mbox_conf
I0311 14:12:13.454685   660 net.cpp:91] Creating Layer conv8_2_mbox_conf
I0311 14:12:13.454690   660 net.cpp:425] conv8_2_mbox_conf <- conv8_2_conv8_2_relu_0_split_2
I0311 14:12:13.454699   660 net.cpp:399] conv8_2_mbox_conf -> conv8_2_mbox_conf
I0311 14:12:13.458801   660 net.cpp:141] Setting up conv8_2_mbox_conf
I0311 14:12:13.458813   660 net.cpp:148] Top shape: 8 126 4 4 (16128)
I0311 14:12:13.458817   660 net.cpp:156] Memory required for data: 5561032544
I0311 14:12:13.458825   660 layer_factory.hpp:77] Creating layer conv8_2_mbox_conf_perm
I0311 14:12:13.458834   660 net.cpp:91] Creating Layer conv8_2_mbox_conf_perm
I0311 14:12:13.458839   660 net.cpp:425] conv8_2_mbox_conf_perm <- conv8_2_mbox_conf
I0311 14:12:13.458847   660 net.cpp:399] conv8_2_mbox_conf_perm -> conv8_2_mbox_conf_perm
I0311 14:12:13.458973   660 net.cpp:141] Setting up conv8_2_mbox_conf_perm
I0311 14:12:13.458986   660 net.cpp:148] Top shape: 8 4 4 126 (16128)
I0311 14:12:13.458993   660 net.cpp:156] Memory required for data: 5561097056
I0311 14:12:13.458997   660 layer_factory.hpp:77] Creating layer conv8_2_mbox_conf_flat
I0311 14:12:13.459004   660 net.cpp:91] Creating Layer conv8_2_mbox_conf_flat
I0311 14:12:13.459009   660 net.cpp:425] conv8_2_mbox_conf_flat <- conv8_2_mbox_conf_perm
I0311 14:12:13.459017   660 net.cpp:399] conv8_2_mbox_conf_flat -> conv8_2_mbox_conf_flat
I0311 14:12:13.459049   660 net.cpp:141] Setting up conv8_2_mbox_conf_flat
I0311 14:12:13.459058   660 net.cpp:148] Top shape: 8 2016 (16128)
I0311 14:12:13.459061   660 net.cpp:156] Memory required for data: 5561161568
I0311 14:12:13.459065   660 layer_factory.hpp:77] Creating layer conv8_2_mbox_priorbox
I0311 14:12:13.459072   660 net.cpp:91] Creating Layer conv8_2_mbox_priorbox
I0311 14:12:13.459080   660 net.cpp:425] conv8_2_mbox_priorbox <- conv8_2_conv8_2_relu_0_split_3
I0311 14:12:13.459086   660 net.cpp:425] conv8_2_mbox_priorbox <- data_data_0_split_5
I0311 14:12:13.459094   660 net.cpp:399] conv8_2_mbox_priorbox -> conv8_2_mbox_priorbox
I0311 14:12:13.459126   660 net.cpp:141] Setting up conv8_2_mbox_priorbox
I0311 14:12:13.459134   660 net.cpp:148] Top shape: 1 2 384 (768)
I0311 14:12:13.459138   660 net.cpp:156] Memory required for data: 5561164640
I0311 14:12:13.459142   660 layer_factory.hpp:77] Creating layer conv9_2_mbox_loc
I0311 14:12:13.459153   660 net.cpp:91] Creating Layer conv9_2_mbox_loc
I0311 14:12:13.459159   660 net.cpp:425] conv9_2_mbox_loc <- conv9_2_conv9_2_relu_0_split_1
I0311 14:12:13.459167   660 net.cpp:399] conv9_2_mbox_loc -> conv9_2_mbox_loc
I0311 14:12:13.460829   660 net.cpp:141] Setting up conv9_2_mbox_loc
I0311 14:12:13.460842   660 net.cpp:148] Top shape: 8 24 2 2 (768)
I0311 14:12:13.460845   660 net.cpp:156] Memory required for data: 5561167712
I0311 14:12:13.460857   660 layer_factory.hpp:77] Creating layer conv9_2_mbox_loc_perm
I0311 14:12:13.460866   660 net.cpp:91] Creating Layer conv9_2_mbox_loc_perm
I0311 14:12:13.460871   660 net.cpp:425] conv9_2_mbox_loc_perm <- conv9_2_mbox_loc
I0311 14:12:13.460885   660 net.cpp:399] conv9_2_mbox_loc_perm -> conv9_2_mbox_loc_perm
I0311 14:12:13.461014   660 net.cpp:141] Setting up conv9_2_mbox_loc_perm
I0311 14:12:13.461024   660 net.cpp:148] Top shape: 8 2 2 24 (768)
I0311 14:12:13.461027   660 net.cpp:156] Memory required for data: 5561170784
I0311 14:12:13.461031   660 layer_factory.hpp:77] Creating layer conv9_2_mbox_loc_flat
I0311 14:12:13.461037   660 net.cpp:91] Creating Layer conv9_2_mbox_loc_flat
I0311 14:12:13.461042   660 net.cpp:425] conv9_2_mbox_loc_flat <- conv9_2_mbox_loc_perm
I0311 14:12:13.461053   660 net.cpp:399] conv9_2_mbox_loc_flat -> conv9_2_mbox_loc_flat
I0311 14:12:13.461084   660 net.cpp:141] Setting up conv9_2_mbox_loc_flat
I0311 14:12:13.461094   660 net.cpp:148] Top shape: 8 96 (768)
I0311 14:12:13.461098   660 net.cpp:156] Memory required for data: 5561173856
I0311 14:12:13.461102   660 layer_factory.hpp:77] Creating layer conv9_2_mbox_conf
I0311 14:12:13.461113   660 net.cpp:91] Creating Layer conv9_2_mbox_conf
I0311 14:12:13.461118   660 net.cpp:425] conv9_2_mbox_conf <- conv9_2_conv9_2_relu_0_split_2
I0311 14:12:13.461127   660 net.cpp:399] conv9_2_mbox_conf -> conv9_2_mbox_conf
I0311 14:12:13.465293   660 net.cpp:141] Setting up conv9_2_mbox_conf
I0311 14:12:13.465306   660 net.cpp:148] Top shape: 8 126 2 2 (4032)
I0311 14:12:13.465311   660 net.cpp:156] Memory required for data: 5561189984
I0311 14:12:13.465318   660 layer_factory.hpp:77] Creating layer conv9_2_mbox_conf_perm
I0311 14:12:13.465328   660 net.cpp:91] Creating Layer conv9_2_mbox_conf_perm
I0311 14:12:13.465332   660 net.cpp:425] conv9_2_mbox_conf_perm <- conv9_2_mbox_conf
I0311 14:12:13.465339   660 net.cpp:399] conv9_2_mbox_conf_perm -> conv9_2_mbox_conf_perm
I0311 14:12:13.465471   660 net.cpp:141] Setting up conv9_2_mbox_conf_perm
I0311 14:12:13.465479   660 net.cpp:148] Top shape: 8 2 2 126 (4032)
I0311 14:12:13.465483   660 net.cpp:156] Memory required for data: 5561206112
I0311 14:12:13.465487   660 layer_factory.hpp:77] Creating layer conv9_2_mbox_conf_flat
I0311 14:12:13.465494   660 net.cpp:91] Creating Layer conv9_2_mbox_conf_flat
I0311 14:12:13.465499   660 net.cpp:425] conv9_2_mbox_conf_flat <- conv9_2_mbox_conf_perm
I0311 14:12:13.465508   660 net.cpp:399] conv9_2_mbox_conf_flat -> conv9_2_mbox_conf_flat
I0311 14:12:13.465540   660 net.cpp:141] Setting up conv9_2_mbox_conf_flat
I0311 14:12:13.465548   660 net.cpp:148] Top shape: 8 504 (4032)
I0311 14:12:13.465551   660 net.cpp:156] Memory required for data: 5561222240
I0311 14:12:13.465555   660 layer_factory.hpp:77] Creating layer conv9_2_mbox_priorbox
I0311 14:12:13.465565   660 net.cpp:91] Creating Layer conv9_2_mbox_priorbox
I0311 14:12:13.465570   660 net.cpp:425] conv9_2_mbox_priorbox <- conv9_2_conv9_2_relu_0_split_3
I0311 14:12:13.465576   660 net.cpp:425] conv9_2_mbox_priorbox <- data_data_0_split_6
I0311 14:12:13.465584   660 net.cpp:399] conv9_2_mbox_priorbox -> conv9_2_mbox_priorbox
I0311 14:12:13.465616   660 net.cpp:141] Setting up conv9_2_mbox_priorbox
I0311 14:12:13.465625   660 net.cpp:148] Top shape: 1 2 96 (192)
I0311 14:12:13.465628   660 net.cpp:156] Memory required for data: 5561223008
I0311 14:12:13.465632   660 layer_factory.hpp:77] Creating layer pool6_mbox_loc
I0311 14:12:13.465646   660 net.cpp:91] Creating Layer pool6_mbox_loc
I0311 14:12:13.465652   660 net.cpp:425] pool6_mbox_loc <- pool6_pool6_0_split_0
I0311 14:12:13.465661   660 net.cpp:399] pool6_mbox_loc -> pool6_mbox_loc
I0311 14:12:13.467913   660 net.cpp:141] Setting up pool6_mbox_loc
I0311 14:12:13.467928   660 net.cpp:148] Top shape: 8 24 1 1 (192)
I0311 14:12:13.467932   660 net.cpp:156] Memory required for data: 5561223776
I0311 14:12:13.467939   660 layer_factory.hpp:77] Creating layer pool6_mbox_loc_perm
I0311 14:12:13.467947   660 net.cpp:91] Creating Layer pool6_mbox_loc_perm
I0311 14:12:13.467952   660 net.cpp:425] pool6_mbox_loc_perm <- pool6_mbox_loc
I0311 14:12:13.467960   660 net.cpp:399] pool6_mbox_loc_perm -> pool6_mbox_loc_perm
I0311 14:12:13.468094   660 net.cpp:141] Setting up pool6_mbox_loc_perm
I0311 14:12:13.468111   660 net.cpp:148] Top shape: 8 1 1 24 (192)
I0311 14:12:13.468114   660 net.cpp:156] Memory required for data: 5561224544
I0311 14:12:13.468118   660 layer_factory.hpp:77] Creating layer pool6_mbox_loc_flat
I0311 14:12:13.468125   660 net.cpp:91] Creating Layer pool6_mbox_loc_flat
I0311 14:12:13.468130   660 net.cpp:425] pool6_mbox_loc_flat <- pool6_mbox_loc_perm
I0311 14:12:13.468142   660 net.cpp:399] pool6_mbox_loc_flat -> pool6_mbox_loc_flat
I0311 14:12:13.468174   660 net.cpp:141] Setting up pool6_mbox_loc_flat
I0311 14:12:13.468183   660 net.cpp:148] Top shape: 8 24 (192)
I0311 14:12:13.468188   660 net.cpp:156] Memory required for data: 5561225312
I0311 14:12:13.468190   660 layer_factory.hpp:77] Creating layer pool6_mbox_conf
I0311 14:12:13.468204   660 net.cpp:91] Creating Layer pool6_mbox_conf
I0311 14:12:13.468210   660 net.cpp:425] pool6_mbox_conf <- pool6_pool6_0_split_1
I0311 14:12:13.468217   660 net.cpp:399] pool6_mbox_conf -> pool6_mbox_conf
I0311 14:12:13.472169   660 net.cpp:141] Setting up pool6_mbox_conf
I0311 14:12:13.472184   660 net.cpp:148] Top shape: 8 126 1 1 (1008)
I0311 14:12:13.472188   660 net.cpp:156] Memory required for data: 5561229344
I0311 14:12:13.472195   660 layer_factory.hpp:77] Creating layer pool6_mbox_conf_perm
I0311 14:12:13.472203   660 net.cpp:91] Creating Layer pool6_mbox_conf_perm
I0311 14:12:13.472208   660 net.cpp:425] pool6_mbox_conf_perm <- pool6_mbox_conf
I0311 14:12:13.472214   660 net.cpp:399] pool6_mbox_conf_perm -> pool6_mbox_conf_perm
I0311 14:12:13.472340   660 net.cpp:141] Setting up pool6_mbox_conf_perm
I0311 14:12:13.472349   660 net.cpp:148] Top shape: 8 1 1 126 (1008)
I0311 14:12:13.472353   660 net.cpp:156] Memory required for data: 5561233376
I0311 14:12:13.472357   660 layer_factory.hpp:77] Creating layer pool6_mbox_conf_flat
I0311 14:12:13.472367   660 net.cpp:91] Creating Layer pool6_mbox_conf_flat
I0311 14:12:13.472373   660 net.cpp:425] pool6_mbox_conf_flat <- pool6_mbox_conf_perm
I0311 14:12:13.472378   660 net.cpp:399] pool6_mbox_conf_flat -> pool6_mbox_conf_flat
I0311 14:12:13.472412   660 net.cpp:141] Setting up pool6_mbox_conf_flat
I0311 14:12:13.472420   660 net.cpp:148] Top shape: 8 126 (1008)
I0311 14:12:13.472424   660 net.cpp:156] Memory required for data: 5561237408
I0311 14:12:13.472427   660 layer_factory.hpp:77] Creating layer pool6_mbox_priorbox
I0311 14:12:13.472435   660 net.cpp:91] Creating Layer pool6_mbox_priorbox
I0311 14:12:13.472440   660 net.cpp:425] pool6_mbox_priorbox <- pool6_pool6_0_split_2
I0311 14:12:13.472445   660 net.cpp:425] pool6_mbox_priorbox <- data_data_0_split_7
I0311 14:12:13.472455   660 net.cpp:399] pool6_mbox_priorbox -> pool6_mbox_priorbox
I0311 14:12:13.472488   660 net.cpp:141] Setting up pool6_mbox_priorbox
I0311 14:12:13.472496   660 net.cpp:148] Top shape: 1 2 24 (48)
I0311 14:12:13.472501   660 net.cpp:156] Memory required for data: 5561237600
I0311 14:12:13.472504   660 layer_factory.hpp:77] Creating layer mbox_loc
I0311 14:12:13.472515   660 net.cpp:91] Creating Layer mbox_loc
I0311 14:12:13.472522   660 net.cpp:425] mbox_loc <- conv4_3_norm_mbox_loc_flat
I0311 14:12:13.472528   660 net.cpp:425] mbox_loc <- fc7_mbox_loc_flat
I0311 14:12:13.472533   660 net.cpp:425] mbox_loc <- conv6_2_mbox_loc_flat
I0311 14:12:13.472539   660 net.cpp:425] mbox_loc <- conv7_2_mbox_loc_flat
I0311 14:12:13.472544   660 net.cpp:425] mbox_loc <- conv8_2_mbox_loc_flat
I0311 14:12:13.472549   660 net.cpp:425] mbox_loc <- conv9_2_mbox_loc_flat
I0311 14:12:13.472554   660 net.cpp:425] mbox_loc <- pool6_mbox_loc_flat
I0311 14:12:13.472563   660 net.cpp:399] mbox_loc -> mbox_loc
I0311 14:12:13.472602   660 net.cpp:141] Setting up mbox_loc
I0311 14:12:13.472614   660 net.cpp:148] Top shape: 8 80388 (643104)
I0311 14:12:13.472617   660 net.cpp:156] Memory required for data: 5563810016
I0311 14:12:13.472621   660 layer_factory.hpp:77] Creating layer mbox_conf
I0311 14:12:13.472627   660 net.cpp:91] Creating Layer mbox_conf
I0311 14:12:13.472632   660 net.cpp:425] mbox_conf <- conv4_3_norm_mbox_conf_flat
I0311 14:12:13.472645   660 net.cpp:425] mbox_conf <- fc7_mbox_conf_flat
I0311 14:12:13.472651   660 net.cpp:425] mbox_conf <- conv6_2_mbox_conf_flat
I0311 14:12:13.472656   660 net.cpp:425] mbox_conf <- conv7_2_mbox_conf_flat
I0311 14:12:13.472661   660 net.cpp:425] mbox_conf <- conv8_2_mbox_conf_flat
I0311 14:12:13.472666   660 net.cpp:425] mbox_conf <- conv9_2_mbox_conf_flat
I0311 14:12:13.472671   660 net.cpp:425] mbox_conf <- pool6_mbox_conf_flat
I0311 14:12:13.472677   660 net.cpp:399] mbox_conf -> mbox_conf
I0311 14:12:13.472714   660 net.cpp:141] Setting up mbox_conf
I0311 14:12:13.472723   660 net.cpp:148] Top shape: 8 422037 (3376296)
I0311 14:12:13.472726   660 net.cpp:156] Memory required for data: 5577315200
I0311 14:12:13.472729   660 layer_factory.hpp:77] Creating layer mbox_priorbox
I0311 14:12:13.472738   660 net.cpp:91] Creating Layer mbox_priorbox
I0311 14:12:13.472743   660 net.cpp:425] mbox_priorbox <- conv4_3_norm_mbox_priorbox
I0311 14:12:13.472748   660 net.cpp:425] mbox_priorbox <- fc7_mbox_priorbox
I0311 14:12:13.472754   660 net.cpp:425] mbox_priorbox <- conv6_2_mbox_priorbox
I0311 14:12:13.472759   660 net.cpp:425] mbox_priorbox <- conv7_2_mbox_priorbox
I0311 14:12:13.472762   660 net.cpp:425] mbox_priorbox <- conv8_2_mbox_priorbox
I0311 14:12:13.472767   660 net.cpp:425] mbox_priorbox <- conv9_2_mbox_priorbox
I0311 14:12:13.472772   660 net.cpp:425] mbox_priorbox <- pool6_mbox_priorbox
I0311 14:12:13.472779   660 net.cpp:399] mbox_priorbox -> mbox_priorbox
I0311 14:12:13.472812   660 net.cpp:141] Setting up mbox_priorbox
I0311 14:12:13.472820   660 net.cpp:148] Top shape: 1 2 80388 (160776)
I0311 14:12:13.472825   660 net.cpp:156] Memory required for data: 5577958304
I0311 14:12:13.472827   660 layer_factory.hpp:77] Creating layer mbox_loss
I0311 14:12:13.472841   660 net.cpp:91] Creating Layer mbox_loss
I0311 14:12:13.472847   660 net.cpp:425] mbox_loss <- mbox_loc
I0311 14:12:13.472852   660 net.cpp:425] mbox_loss <- mbox_conf
I0311 14:12:13.472857   660 net.cpp:425] mbox_loss <- mbox_priorbox
…
state {
  phase: TEST
}
layer {
  name: "data"
  type: "AnnotatedData"
  top: "data"
  top: "label"
  include {
    phase: TEST
  }
  transform_param {
    mean_value: 104
    mean_value: 117
    mean_value: 123
    resize_param {
      prob: 1
      resize_mode: WARP
      height: 500
      width: 500
      interp_mode: LINEAR
    }
  }
  data_param {
    source: "examples/VOC0712/VOC0712_test_lmdb"
    batch_size: 1
    backend: LMDB
  }
  annotated_data_param {
    batch_sampler {
    }
    label_map_file: "data/VOC0712/labelmap_voc.prototxt"
  }
}
layer {
  name: "conv1_1"
  type: "Convolution"
  bottom: "data"
  top: "conv1_1"
  param {
    lr_mult: 0
    decay_mult: 0
  }
  param {
    lr_mult: 0
    decay_mult: 0
  }
  convolution_param {
    num_output: 64
    pad: 1
    kernel_size: 3
    weight_filler {
      type: "xavier"
    }
    bias_filler {
      type: "constant"
      value: 0
    }
  }
}
layer {
  name: "relu1_1"
  type: "ReLU"
  bottom: "conv1_1"
  top: "conv1_1"
}
layer {
  name: "conv1_2"
  type: "Convolution"
  bottom: "conv1_1"
  top: "conv1_2"
  param {
    lr_mult: 0
    decay_mult: 0
  }
  param {
    lr_mult: 0
    decay_mult: 0
  }
  convolution_param {
    num_output: 64
    pad: 1
    kernel_size: 3
    weight_filler {
      type: "xavier"
    }
    bias_filler {
      type: "constant"
      value: 0
    }
  }
}
layer {
  name: "relu1_2"
  type: "ReLU"
  bottom: "conv1_2"
  top: "conv1_2"
}
layer {
  name: "pool1"
  type: "Pooling"
  bottom: "conv1_2"
  top: "pool1"
  pooling_param {
    pool: MAX
    kernel_size: 2
    stride: 2
  }
}
layer {
  name: "conv2_1"
  type: "Convolution"
  bottom: "pool1"
  top: "conv2_1"
  param {
    lr_mult: 0
    decay_mult: 0
  }
  param {
    lr_mult: 0
    decay_mult: 0
  }
  convolution_param {
    num_output: 128
    pad: 1
    kernel_size: 3
    weight_filler {
      type: "xavier"
    }
    bias_filler {
      type: "constant"
      value: 0
    }
  }
}
layer {
  name: "relu2_1"
  type: "ReLU"
  bottom: "conv2_1"
  top: "conv2_1"
}
layer {
  name: "conv2_2"
  type: "Convolution"
  bottom: "conv2_1"
  top: "conv2_2"
  param {
    lr_mult: 0
    decay_mult: 0
  }
  param {
    lr_mult: 0
    decay_mult: 0
  }
  convolution_param {
    num_output: 128
    pad: 1
    kernel_size: 3
    weight_filler {
      type: "xavier"
    }
    bias_filler {
      type: "constant"
      value: 0
    }
  }
}
layer {
  name: "relu2_2"
  type: "ReLU"
  bottom: "conv2_2"
  top: "conv2_2"
}
layer {
  name: "pool2"
  type: "Pooling"
  bottom: "conv2_2"
  top: "pool2"
  pooling_param {
    pool: MAX
    kernel_size: 2
    stride: 2
  }
}
layer {
  name: "conv3_1"
  type: "Convolution"
  bottom: "pool2"
  top: "conv3_1"
  param {
    lr_mult: 1
    decay_mult: 1
  }
  param {
    lr_mult: 2
    decay_mult: 0
  }
  convolution_param {
    num_output: 256
    pad: 1
    kernel_size: 3
    weight_filler {
      type: "xavier"
    }
    bias_filler {
      type: "constant"
      value: 0
    }
  }
}
layer {
  name: "relu3_1"
  type: "ReLU"
  bottom: "conv3_1"
  top: "conv3_1"
}
layer {
  name: "conv3_2"
  type: "Convolution"
  bottom: "conv3_1"
  top: "conv3_2"
  param {
    lr_mult: 1
    decay_mult: 1
  }
  param {
    lr_mult: 2
    decay_mult: 0
  }
  convolution_param {
    num_output: 256
    pad: 1
    kernel_size: 3
    weight_filler {
      type: "xavier"
    }
    bias_filler {
      type: "constant"
      value: 0
    }
  }
}
layer {
  name: "relu3_2"
  type: "ReLU"
  bottom: "conv3_2"
  top: "conv3_2"
}
layer {
  name: "conv3_3"
  type: "Convolution"
  bottom: "conv3_2"
  top: "conv3_3"
  param {
    lr_mult: 1
    decay_mult: 1
  }
  param {
    lr_mult: 2
    decay_mult: 0
  }
  convolution_param {
    num_output: 256
    pad: 1
    kernel_size: 3
    weight_filler {
      type: "xavier"
    }
    bias_filler {
      type: "constant"
      value: 0
    }
  }
}
layer {
  name: "relu3_3"
  type: "ReLU"
  bottom: "conv3_3"
  top: "conv3_3"
}
layer {
  name: "pool3"
  type: "Pooling"
  bottom: "conv3_3"
  top: "pool3"
  pooling_param {
    pool: MAX
    kernel_size: 2
    stride: 2
  }
}
layer {
  name: "conv4_1"
  type: "Convolution"
  bottom: "pool3"
  top: "conv4_1"
  param {
    lr_mult: 1
    decay_mult: 1
  }
  param {
    lr_mult: 2
    decay_mult: 0
  }
  convolution_param {
    num_output: 512
    pad: 1
    kernel_size: 3
    weight_filler {
      type: "xavier"
    }
    bias_filler {
      type: "constant"
      value: 0
    }
  }
}
layer {
  name: "relu4_1"
  type: "ReLU"
  bottom: "conv4_1"
  top: "conv4_1"
}
layer {
  name: "conv4_2"
  type: "Convolution"
  bottom: "conv4_1"
  top: "conv4_2"
  param {
    lr_mult: 1
    decay_mult: 1
  }
  param {
    lr_mult: 2
    decay_mult: 0
  }
  convolution_param {
    num_output: 512
    pad: 1
    kernel_size: 3
    weight_filler {
      type: "xavier"
    }
    bias_filler {
      type: "constant"
      value: 0
    }
  }
}
layer {
  name: "relu4_2"
  type: "ReLU"
  bottom: "conv4_2"
  top: "conv4_2"
}
layer {
  name: "conv4_3"
  type: "Convolution"
  bottom: "conv4_2"
  top: "conv4_3"
  param {
    lr_mult: 1
    decay_mult: 1
  }
  param {
    lr_mult: 2
    decay_mult: 0
  }
  convolution_param {
    num_output: 512
    pad: 1
    kernel_size: 3
    weight_filler {
      type: "xavier"
    }
    bias_filler {
      type: "constant"
      value: 0
    }
  }
}
layer {
  name: "relu4_3"
  type: "ReLU"
  bottom: "conv4_3"
  top: "conv4_3"
}
layer {
  name: "pool4"
  type: "Pooling"
  bottom: "conv4_3"
  top: "pool4"
  pooling_param {
    pool: MAX
    kernel_size: 2
    stride: 2
  }
}
layer {
  name: "conv5_1"
  type: "Convolution"
  bottom: "pool4"
  top: "conv5_1"
  param {
    lr_mult: 1
    decay_mult: 1
  }
  param {
    lr_mult: 2
    decay_mult: 0
  }
  convolution_param {
    num_output: 512
    pad: 1
    kernel_size: 3
    weight_filler {
      type: "xavier"
    }
    bias_filler {
      type: "constant"
      value: 0
    }
  }
}
layer {
  name: "relu5_1"
  type: "ReLU"
  bottom: "conv5_1"
  top: "conv5_1"
}
layer {
  name: "conv5_2"
  type: "Convolution"
  bottom: "conv5_1"
  top: "conv5_2"
  param {
    lr_mult: 1
    decay_mult: 1
  }
  param {
    lr_mult: 2
    decay_mult: 0
  }
  convolution_param {
    num_output: 512
    pad: 1
    kernel_size: 3
    weight_filler {
      type: "xavier"
    }
    bias_filler {
      type: "constant"
      value: 0
    }
  }
}
layer {
  name: "relu5_2"
  type: "ReLU"
  bottom: "conv5_2"
  top: "conv5_2"
}
layer {
  name: "conv5_3"
  type: "Convolution"
  bottom: "conv5_2"
  top: "conv5_3"
  param {
    lr_mult: 1
    decay_mult: 1
  }
  param {
    lr_mult: 2
    decay_mult: 0
  }
  convolution_param {
    num_output: 512
    pad: 1
    kernel_size: 3
    weight_filler {
      type: "xavier"
    }
    bias_filler {
      type: "constant"
      value: 0
    }
  }
}
layer {
  name: "relu5_3"
  type: "ReLU"
  bottom: "conv5_3"
  top: "conv5_3"
}
layer {
  name: "pool5"
  type: "Pooling"
  bottom: "conv5_3"
  top: "pool5"
  pooling_param {
    pool: MAX
    kernel_size: 3
    stride: 1
    pad: 1
  }
}
layer {
  name: "fc6"
  type: "Convolution"
  bottom: "pool5"
  top: "fc6"
  param {
    lr_mult: 1
    decay_mult: 1
  }
  param {
    lr_mult: 2
    decay_mult: 0
  }
  convolution_param {
    num_output: 1024
    pad: 6
    kernel_size: 3
    weight_filler {
      type: "xavier"
    }
    bias_filler {
      type: "constant"
      value: 0
    }
    dilation: 6
  }
}
layer {
  name: "relu6"
  type: "ReLU"
  bottom: "fc6"
  top: "fc6"
}
layer {
  name: "fc7"
  type: "Convolution"
  bottom: "fc6"
  top: "fc7"
  param {
    lr_mult: 1
    decay_mult: 1
  }
  param {
    lr_mult: 2
    decay_mult: 0
  }
  convolution_param {
    num_output: 1024
    kernel_size: 1
    weight_filler {
      type: "xavier"
    }
    bias_filler {
      type: "constant"
      value: 0
    }
  }
}
layer {
  name: "relu7"
  type: "ReLU"
  bottom: "fc7"
  top: "fc7"
}
layer {
  name: "conv6_1"
  type: "Convolution"
  bottom: "fc7"
  top: "conv6_1"
  param {
    lr_mult: 1
    decay_mult: 1
  }
  param {
    lr_mult: 2
    decay_mult: 0
  }
  convolution_param {
    num_output: 256
    pad: 0
    kernel_size: 1
    stride: 1
    weight_filler {
      type: "xavier"
    }
    bias_filler {
      type: "constant"
      value: 0
    }
  }
}
layer {
  name: "conv6_1_relu"
  type: "ReLU"
  bottom: "conv6_1"
  top: "conv6_1"
}
layer {
  name: "conv6_2"
  type: "Convolution"
  bottom: "conv6_1"
  top: "conv6_2"
  param {
    lr_mult: 1
    decay_mult: 1
  }
  param {
    lr_mult: 2
    decay_mult: 0
  }
  convolution_param {
    num_output: 512
    pad: 1
    kernel_size: 3
    stride: 2
    weight_filler {
      type: "xavier"
    }
    bias_filler {
      type: "constant"
      value: 0
    }
  }
}
layer {
  name: "conv6_2_relu"
  type: "ReLU"
  bottom: "conv6_2"
  top: "conv6_2"
}
layer {
  name: "conv7_1"
  type: "Convolution"
  bottom: "conv6_2"
  top: "conv7_1"
  param {
    lr_mult: 1
    decay_mult: 1
  }
  param {
    lr_mult: 2
    decay_mult: 0
  }
  convolution_param {
    num_output: 128
    pad: 0
    kernel_size: 1
    stride: 1
    weight_filler {
      type: "xavier"
    }
    bias_filler {
      type: "constant"
      value: 0
    }
  }
}
layer {
  name: "conv7_1_relu"
  type: "ReLU"
  bottom: "conv7_1"
  top: "conv7_1"
}
layer {
  name: "conv7_2"
  type: "Convolution"
  bottom: "conv7_1"
  top: "conv7_2"
  param {
    lr_mult: 1
    decay_mult: 1
  }
  param {
    lr_mult: 2
    decay_mult: 0
  }
  convolution_param {
    num_output: 256
    pad: 1
    kernel_size: 3
    stride: 2
    weight_filler {
      type: "xavier"
    }
    bias_filler {
      type: "constant"
      value: 0
    }
  }
}
layer {
  name: "conv7_2_relu"
  type: "ReLU"
  bottom: "conv7_2"
  top: "conv7_2"
}
layer {
  name: "conv8_1"
  type: "Convolution"
  bottom: "conv7_2"
  top: "conv8_1"
  param {
    lr_mult: 1
    decay_mult: 1
  }
  param {
    lr_mult: 2
    decay_mult: 0
  }
  convolution_param {
    num_output: 128
    pad: 0
    kernel_size: 1
    stride: 1
    weight_filler {
      type: "xavier"
    }
    bias_filler {
      type: "constant"
      value: 0
    }
  }
}
layer {
  name: "conv8_1_relu"
  type: "ReLU"
  bottom: "conv8_1"
  top: "conv8_1"
}
layer {
  name: "conv8_2"
  type: "Convolution"
  bottom: "conv8_1"
  top: "conv8_2"
  param {
    lr_mult: 1
    decay_mult: 1
  }
  param {
    lr_mult: 2
    decay_mult: 0
  }
  convolution_param {
    num_output: 256
    pad: 1
    kernel_size: 3
    stride: 2
    weight_filler {
      type: "xavier"
    }
    bias_filler {
      type: "constant"
      value: 0
    }
  }
}
layer {
  name: "conv8_2_relu"
  type: "ReLU"
  bottom: "conv8_2"
  top: "conv8_2"
}
layer {
  name: "conv9_1"
  type: "Convolution"
  bottom: "conv8_2"
  top: "conv9_1"
  param {
    lr_mult: 1
    decay_mult: 1
  }
  param {
    lr_mult: 2
    decay_mult: 0
  }
  convolution_param {
    num_output: 128
    pad: 0
    kernel_size: 1
    stride: 1
    weight_filler {
      type: "xavier"
    }
    bias_filler {
      type: "constant"
      value: 0
    }
  }
}
layer {
  name: "conv9_1_relu"
  type: "ReLU"
  bottom: "conv9_1"
  top: "conv9_1"
}
layer {
  name: "conv9_2"
  type: "Convolution"
  bottom: "conv9_1"
  top: "conv9_2"
  param {
    lr_mult: 1
    decay_mult: 1
  }
  param {
    lr_mult: 2
    decay_mult: 0
  }
  convolution_param {
    num_output: 256
    pad: 1
    kernel_size: 3
    stride: 2
    weight_filler {
      type: "xavier"
    }
    bias_filler {
      type: "constant"
      value: 0
    }
  }
}
layer {
  name: "conv9_2_relu"
  type: "ReLU"
  bottom: "conv9_2"
  top: "conv9_2"
}
layer {
  name: "pool6"
  type: "Pooling"
  bottom: "conv9_2"
  top: "pool6"
  pooling_param {
    pool: AVE
    global_pooling: true
  }
}
layer {
  name: "conv4_3_norm"
  type: "Normalize"
  bottom: "conv4_3"
  top: "conv4_3_norm"
  norm_param {
    across_spatial: false
    scale_filler {
      type: "constant"
      value: 20
    }
    channel_shared: false
  }
}
layer {
  name: "conv4_3_norm_mbox_loc"
  type: "Convolution"
  bottom: "conv4_3_norm"
  top: "conv4_3_norm_mbox_loc"
  param {
    lr_mult: 1
    decay_mult: 1
  }
  param {
    lr_mult: 2
    decay_mult: 0
  }
  convolution_param {
    num_output: 12
    pad: 1
    kernel_size: 3
    stride: 1
    weight_filler {
      type: "xavier"
    }
    bias_filler {
      type: "constant"
      value: 0
    }
  }
}
layer {
  name: "conv4_3_norm_mbox_loc_perm"
  type: "Permute"
  bottom: "conv4_3_norm_mbox_loc"
  top: "conv4_3_norm_mbox_loc_perm"
  permute_param {
    order: 0
    order: 2
    order: 3
    order: 1
  }
}
layer {
  name: "conv4_3_norm_mbox_loc_flat"
  type: "Flatten"
  bottom: "conv4_3_norm_mbox_loc_perm"
  top: "conv4_3_norm_mbox_loc_flat"
  flatten_param {
    axis: 1
  }
}
layer {
  name: "conv4_3_norm_mbox_conf"
  type: "Convolution"
  bottom: "conv4_3_norm"
  top: "conv4_3_norm_mbox_conf"
  param {
    lr_mult: 1
    decay_mult: 1
  }
  param {
    lr_mult: 2
    decay_mult: 0
  }
  convolution_param {
    num_output: 63
    pad: 1
    kernel_size: 3
    stride: 1
    weight_filler {
      type: "xavier"
    }
    bias_filler {
      type: "constant"
      value: 0
    }
  }
}
layer {
  name: "conv4_3_norm_mbox_conf_perm"
  type: "Permute"
  bottom: "conv4_3_norm_mbox_conf"
  top: "conv4_3_norm_mbox_conf_perm"
  permute_param {
    order: 0
    order: 2
    order: 3
    order: 1
  }
}
layer {
  name: "conv4_3_norm_mbox_conf_flat"
  type: "Flatten"
  bottom: "conv4_3_norm_mbox_conf_perm"
  top: "conv4_3_norm_mbox_conf_flat"
  flatten_param {
    axis: 1
  }
}
layer {
  name: "conv4_3_norm_mbox_priorbox"
  type: "PriorBox"
  bottom: "conv4_3_norm"
  bottom: "data"
  top: "conv4_3_norm_mbox_priorbox"
  prior_box_param {
    min_size: 35
    aspect_ratio: 2
    flip: true
    clip: true
    variance: 0.1
    variance: 0.1
    variance: 0.2
    variance: 0.2
  }
}
layer {
  name: "fc7_mbox_loc"
  type: "Convolution"
  bottom: "fc7"
  top: "fc7_mbox_loc"
  param {
    lr_mult: 1
    decay_mult: 1
  }
  param {
    lr_mult: 2
    decay_mult: 0
  }
  convolution_param {
    num_output: 24
    pad: 1
    kernel_size: 3
    stride: 1
    weight_filler {
      type: "xavier"
    }
    bias_filler {
      type: "constant"
      value: 0
    }
  }
}
layer {
  name: "fc7_mbox_loc_perm"
  type: "Permute"
  bottom: "fc7_mbox_loc"
  top: "fc7_mbox_loc_perm"
  permute_param {
    order: 0
    order: 2
    order: 3
    order: 1
  }
}
layer {
  name: "fc7_mbox_loc_flat"
  type: "Flatten"
  bottom: "fc7_mbox_loc_perm"
  top: "fc7_mbox_loc_flat"
  flatten_param {
    axis: 1
  }
}
layer {
  name: "fc7_mbox_conf"
  type: "Convolution"
  bottom: "fc7"
  top: "fc7_mbox_conf"
  param {
    lr_mult: 1
    decay_mult: 1
  }
  param {
    lr_mult: 2
    decay_mult: 0
  }
  convolution_param {
    num_output: 126
    pad: 1
    kernel_size: 3
    stride: 1
    weight_filler {
      type: "xavier"
    }
    bias_filler {
      type: "constant"
      value: 0
    }
  }
}
layer {
  name: "fc7_mbox_conf_perm"
  type: "Permute"
  bottom: "fc7_mbox_conf"
  top: "fc7_mbox_conf_perm"
  permute_param {
    order: 0
    order: 2
    order: 3
    order: 1
  }
}
layer {
  name: "fc7_mbox_conf_flat"
  type: "Flatten"
  bottom: "fc7_mbox_conf_perm"
  top: "fc7_mbox_conf_flat"
  flatten_param {
    axis: 1
  }
}
layer {
  name: "fc7_mbox_priorbox"
  type: "PriorBox"
  bottom: "fc7"
  bottom: "data"
  top: "fc7_mbox_priorbox"
  prior_box_param {
    min_size: 75
    max_size: 155
    aspect_ratio: 2
    aspect_ratio: 3
    flip: true
    clip: true
    variance: 0.1
    variance: 0.1
    variance: 0.2
    variance: 0.2
  }
}
layer {
  name: "conv6_2_mbox_loc"
  type: "Convolution"
  bottom: "conv6_2"
  top: "conv6_2_mbox_loc"
  param {
    lr_mult: 1
    decay_mult: 1
  }
  param {
    lr_mult: 2
    decay_mult: 0
  }
  convolution_param {
    num_output: 24
    pad: 1
    kernel_size: 3
    stride: 1
    weight_filler {
      type: "xavier"
    }
    bias_filler {
      type: "constant"
      value: 0
    }
  }
}
layer {
  name: "conv6_2_mbox_loc_perm"
  type: "Permute"
  bottom: "conv6_2_mbox_loc"
  top: "conv6_2_mbox_loc_perm"
  permute_param {
    order: 0
    order: 2
    order: 3
    order: 1
  }
}
layer {
  name: "conv6_2_mbox_loc_flat"
  type: "Flatten"
  bottom: "conv6_2_mbox_loc_perm"
  top: "conv6_2_mbox_loc_flat"
  flatten_param {
    axis: 1
  }
}
layer {
  name: "conv6_2_mbox_conf"
  type: "Convolution"
  bottom: "conv6_2"
  top: "conv6_2_mbox_conf"
  param {
    lr_mult: 1
    decay_mult: 1
  }
  param {
    lr_mult: 2
    decay_mult: 0
  }
  convolution_param {
    num_output: 126
    pad: 1
    kernel_size: 3
    stride: 1
    weight_filler {
      type: "xavier"
    }
    bias_filler {
      type: "constant"
      value: 0
    }
  }
}
layer {
  name: "conv6_2_mbox_conf_perm"
  type: "Permute"
  bottom: "conv6_2_mbox_conf"
  top: "conv6_2_mbox_conf_perm"
  permute_param {
    order: 0
    order: 2
    order: 3
    order: 1
  }
}
layer {
  name: "conv6_2_mbox_conf_flat"
  type: "Flatten"
  bottom: "conv6_2_mbox_conf_perm"
  top: "conv6_2_mbox_conf_flat"
  flatten_param {
    axis: 1
  }
}
layer {
  name: "conv6_2_mbox_priorbox"
  type: "PriorBox"
  bottom: "conv6_2"
  bottom: "data"
  top: "conv6_2_mbox_priorbox"
  prior_box_param {
    min_size: 155
    max_size: 235
    aspect_ratio: 2
    aspect_ratio: 3
    flip: true
    clip: true
    variance: 0.1
    variance: 0.1
    variance: 0.2
    variance: 0.2
  }
}
layer {
  name: "conv7_2_mbox_loc"
  type: "Convolution"
  bottom: "conv7_2"
  top: "conv7_2_mbox_loc"
  param {
    lr_mult: 1
    decay_mult: 1
  }
  param {
    lr_mult: 2
    decay_mult: 0
  }
  convolution_param {
    num_output: 24
    pad: 1
    kernel_size: 3
    stride: 1
    weight_filler {
      type: "xavier"
    }
    bias_filler {
      type: "constant"
      value: 0
    }
  }
}
layer {
  name: "conv7_2_mbox_loc_perm"
  type: "Permute"
  bottom: "conv7_2_mbox_loc"
  top: "conv7_2_mbox_loc_perm"
  permute_param {
    order: 0
    order: 2
    order: 3
    order: 1
  }
}
layer {
  name: "conv7_2_mbox_loc_flat"
  type: "Flatten"
  bottom: "conv7_2_mbox_loc_perm"
  top: "conv7_2_mbox_loc_flat"
  flatten_param {
    axis: 1
  }
}
layer {
  name: "conv7_2_mbox_conf"
  type: "Convolution"
  bottom: "conv7_2"
  top: "conv7_2_mbox_conf"
  param {
    lr_mult: 1
    decay_mult: 1
  }
  param {
    lr_mult: 2
    decay_mult: 0
  }
  convolution_param {
    num_output: 126
    pad: 1
    kernel_size: 3
    stride: 1
    weight_filler {
      type: "xavier"
    }
    bias_filler {
      type: "constant"
      value: 0
    }
  }
}
layer {
  name: "conv7_2_mbox_conf_perm"
  type: "Permute"
  bottom: "conv7_2_mbox_conf"
  top: "conv7_2_mbox_conf_perm"
  permute_param {
    order: 0
    order: 2
    order: 3
    order: 1
  }
}
layer {
  name: "conv7_2_mbox_conf_flat"
  type: "Flatten"
  bottom: "conv7_2_mbox_conf_perm"
  top: "conv7_2_mbox_conf_flat"
  flatten_param {
    axis: 1
  }
}
layer {
  name: "conv7_2_mbox_priorbox"
  type: "PriorBox"
  bottom: "conv7_2"
  bottom: "data"
  top: "conv7_2_mbox_priorbox"
  prior_box_param {
    min_size: 235
    max_size: 315
    aspect_ratio: 2
    aspect_ratio: 3
    flip: true
    clip: true
    variance: 0.1
    variance: 0.1
    variance: 0.2
    variance: 0.2
  }
}
layer {
  name: "conv8_2_mbox_loc"
  type: "Convolution"
  bottom: "conv8_2"
  top: "conv8_2_mbox_loc"
  param {
    lr_mult: 1
    decay_mult: 1
  }
  param {
    lr_mult: 2
    decay_mult: 0
  }
  convolution_param {
    num_output: 24
    pad: 1
    kernel_size: 3
    stride: 1
    weight_filler {
      type: "xavier"
    }
    bias_filler {
      type: "constant"
      value: 0
    }
  }
}
layer {
  name: "conv8_2_mbox_loc_perm"
  type: "Permute"
  bottom: "conv8_2_mbox_loc"
  top: "conv8_2_mbox_loc_perm"
  permute_param {
    order: 0
    order: 2
    order: 3
    order: 1
  }
}
layer {
  name: "conv8_2_mbox_loc_flat"
  type: "Flatten"
  bottom: "conv8_2_mbox_loc_perm"
  top: "conv8_2_mbox_loc_flat"
  flatten_param {
    axis: 1
  }
}
layer {
  name: "conv8_2_mbox_conf"
  type: "Convolution"
  bottom: "conv8_2"
  top: "conv8_2_mbox_conf"
  param {
    lr_mult: 1
    decay_mult: 1
  }
  param {
    lr_mult: 2
    decay_mult: 0
  }
  convolution_param {
    num_output: 126
    pad: 1
    kernel_size: 3
    stride: 1
    weight_filler {
      type: "xavier"
    }
    bias_filler {
      type: "constant"
      value: 0
    }
  }
}
layer {
  name: "conv8_2_mbox_conf_perm"
  type: "Permute"
  bottom: "conv8_2_mbox_conf"
  top: "conv8_2_mbox_conf_perm"
  permute_param {
    order: 0
    order: 2
    order: 3
    order: 1
  }
}
layer {
  name: "conv8_2_mbox_conf_flat"
  type: "Flatten"
  bottom: "conv8_2_mbox_conf_perm"
  top: "conv8_2_mbox_conf_flat"
  flatten_param {
    axis: 1
  }
}
layer {
  name: "conv8_2_mbox_priorbox"
  type: "PriorBox"
  bottom: "conv8_2"
  bottom: "data"
  top: "conv8_2_mbox_priorbox"
  prior_box_param {
    min_size: 315
    max_size: 395
    aspect_ratio: 2
    aspect_ratio: 3
    flip: true
    clip: true
    variance: 0.1
    variance: 0.1
    variance: 0.2
    variance: 0.2
  }
}
layer {
  name: "conv9_2_mbox_loc"
  type: "Convolution"
  bottom: "conv9_2"
  top: "conv9_2_mbox_loc"
  param {
    lr_mult: 1
    decay_mult: 1
  }
  param {
    lr_mult: 2
    decay_mult: 0
  }
  convolution_param {
    num_output: 24
    pad: 1
    kernel_size: 3
    stride: 1
    weight_filler {
      type: "xavier"
    }
    bias_filler {
      type: "constant"
      value: 0
    }
  }
}
layer {
  name: "conv9_2_mbox_loc_perm"
  type: "Permute"
  bottom: "conv9_2_mbox_loc"
  top: "conv9_2_mbox_loc_perm"
  permute_param {
    order: 0
    order: 2
    order: 3
    order: 1
  }
}
layer {
  name: "conv9_2_mbox_loc_flat"
  type: "Flatten"
  bottom: "conv9_2_mbox_loc_perm"
  top: "conv9_2_mbox_loc_flat"
  flatten_param {
    axis: 1
  }
}
layer {
  name: "conv9_2_mbox_conf"
  type: "Convolution"
  bottom: "conv9_2"
  top: "conv9_2_mbox_conf"
  param {
    lr_mult: 1
    decay_mult: 1
  }
  param {
    lr_mult: 2
    decay_mult: 0
  }
  convolution_param {
    num_output: 126
    pad: 1
    kernel_size: 3
    stride: 1
    weight_filler {
      type: "xavier"
    }
    bias_filler {
      type: "constant"
      value: 0
    }
  }
}
layer {
  name: "conv9_2_mbox_conf_perm"
  type: "Permute"
  bottom: "conv9_2_mbox_conf"
  top: "conv9_2_mbox_conf_perm"
  permute_param {
    order: 0
    order: 2
    order: 3
    order: 1
  }
}
layer {
  name: "conv9_2_mbox_conf_flat"
  type: "Flatten"
  bottom: "conv9_2_mbox_conf_perm"
  top: "conv9_2_mbox_conf_flat"
  flatten_param {
    axis: 1
  }
}
layer {
  name: "conv9_2_mbox_priorbox"
  type: "PriorBox"
  bottom: "conv9_2"
  bottom: "data"
  top: "conv9_2_mbox_priorbox"
  prior_box_param {
    min_size: 395
    max_size: 475
    aspect_ratio: 2
    aspect_ratio: 3
    flip: true
    clip: true
    variance: 0.1
    variance: 0.1
    variance: 0.2
    variance: 0.2
  }
}
layer {
  name: "pool6_mbox_loc"
  type: "Convolution"
  bottom: "pool6"
  top: "pool6_mbox_loc"
  param {
    lr_mult: 1
    decay_mult: 1
  }
  param {
    lr_mult: 2
    decay_mult: 0
  }
  convolution_param {
    num_output: 24
    pad: 1
    kernel_size: 3
    stride: 1
    weight_filler {
      type: "xavier"
    }
    bias_filler {
      type: "constant"
      value: 0
    }
  }
}
layer {
  name: "pool6_mbox_loc_perm"
  type: "Permute"
  bottom: "pool6_mbox_loc"
  top: "pool6_mbox_loc_perm"
  permute_param {
    order: 0
    order: 2
    order: 3
    order: 1
  }
}
layer {
  name: "pool6_mbox_loc_flat"
  type: "Flatten"
  bottom: "pool6_mbox_loc_perm"
  top: "pool6_mbox_loc_flat"
  flatten_param {
    axis: 1
  }
}
layer {
  name: "pool6_mbox_conf"
  type: "Convolution"
  bottom: "pool6"
  top: "pool6_mbox_conf"
  param {
    lr_mult: 1
    decay_mult: 1
  }
  param {
    lr_mult: 2
    decay_mult: 0
  }
  convolution_param {
    num_output: 126
    pad: 1
    kernel_size: 3
    stride: 1
    weight_filler {
      type: "xavier"
    }
    bias_filler {
      type: "constant"
      value: 0
    }
  }
}
layer {
  name: "pool6_mbox_conf_perm"
  type: "Permute"
  bottom: "pool6_mbox_conf"
  top: "pool6_mbox_conf_perm"
  permute_param {
    order: 0
    order: 2
    order: 3
    order: 1
  }
}
layer {
  name: "pool6_mbox_conf_flat"
  type: "Flatten"
  bottom: "pool6_mbox_conf_perm"
  top: "pool6_mbox_conf_flat"
  flatten_param {
    axis: 1
  }
}
layer {
  name: "pool6_mbox_priorbox"
  type: "PriorBox"
  bottom: "pool6"
  bottom: "data"
  top: "pool6_mbox_priorbox"
  prior_box_param {
    min_size: 475
    max_size: 555
    aspect_ratio: 2
    aspect_ratio: 3
    flip: true
    clip: true
    variance: 0.1
    variance: 0.1
    variance: 0.2
    variance: 0.2
  }
}
layer {
  name: "mbox_loc"
  type: "Concat"
  bottom: "conv4_3_norm_mbox_loc_flat"
  bottom: "fc7_mbox_loc_flat"
  bottom: "conv6_2_mbox_loc_flat"
  bottom: "conv7_2_mbox_loc_flat"
  bottom: "conv8_2_mbox_loc_flat"
  bottom: "conv9_2_mbox_loc_flat"
  bottom: "pool6_mbox_loc_flat"
  top: "mbox_loc"
  concat_param {
    axis: 1
  }
}
layer {
  name: "mbox_conf"
  type: "Concat"
  bottom: "conv4_3_norm_mbox_conf_flat"
  bottom: "fc7_mbox_conf_flat"
  bottom: "conv6_2_mbox_conf_flat"
  bottom: "conv7_2_mbox_conf_flat"
  bottom: "conv8_2_mbox_conf_flat"
  bottom: "conv9_2_mbox_conf_flat"
  bottom: "pool6_mbox_conf_flat"
  top: "mbox_conf"
  concat_param {
    axis: 1
  }
}
layer {
  name: "mbox_priorbox"
  type: "Concat"
  bottom: "conv4_3_norm_mbox_priorbox"
  bottom: "fc7_mbox_priorbox"
  bottom: "conv6_2_mbox_priorbox"
  bottom: "conv7_2_mbox_priorbox"
  bottom: "conv8_2_mbox_priorbox"
  bottom: "conv9_2_mbox_priorbox"
  bottom: "pool6_mbox_priorbox"
  top: "mbox_priorbox"
  concat_param {
    axis: 2
  }
}
layer {
  name: "mbox_conf_reshape"
  type: "Reshape"
  bottom: "mbox_conf"
  top: "mbox_conf_reshape"
  reshape_param {
    shape {
      dim: 0
      dim: -1
      dim: 21
    }
  }
}
layer {
  name: "mbox_conf_softmax"
  type: "Softmax"
  bottom: "mbox_conf_reshape"
  top: "mbox_conf_softmax"
  softmax_param {
    axis: 2
  }
}
layer {
  name: "mbox_conf_flatten"
  type: "Flatten"
  bottom: "mbox_conf_softmax"
  top: "mbox_conf_flatten"
  flatten_param {
    axis: 1
  }
}
layer {
  name: "detection_out"
  type: "DetectionOutput"
  bottom: "mbox_loc"
  bottom: "mbox_conf_flatten"
  bottom: "mbox_priorbox"
  top: "detection_out"
  include {
    phase: TEST
  }
  detection_output_param {
    num_classes: 21
    share_location: true
    background_label_id: 0
    nms_param {
      nms_threshold: 0.45
      top_k: 400
    }
    save_output_param {
      output_directory: "/home-2/wliu/data/VOCdevkit/results/VOC2007/SSD_500x500/Main"
      output_name_prefix: "comp4_det_test_"
      output_format: "VOC"
      label_map_file: "data/VOC0712/labelmap_voc.prototxt"
      name_size_file: "data/VOC0712/test_name_size.txt"
      num_test_image: 4952
    }
    code_type: CENTER_SIZE
    keep_top_k: 200
  }
}
layer {
  name: "detection_eval"
  type: "DetectionEvaluate"
  bottom: "detection_out"
  bottom: "label"
  top: "detection_eval"
  include {
    phase: TEST
  }
  detection_evaluate_param {
    num_classes: 21
    background_label_id: 0
    overlap_threshold: 0.5
    evaluate_difficult_gt: false
    name_size_file: "data/VOC0712/test_name_size.txt"
  }
}
I0311 14:12:13.478241   660 layer_factory.hpp:77] Creating layer data
I0311 14:12:13.478332   660 net.cpp:91] Creating Layer data
I0311 14:12:13.478343   660 net.cpp:399] data -> data
I0311 14:12:13.478354   660 net.cpp:399] data -> label
I0311 14:12:13.494302   667 db_lmdb.cpp:38] Opened lmdb examples/VOC0712/VOC0712_test_lmdb
I0311 14:12:13.520452   660 annotated_data_layer.cpp:52] output data size: 1,3,500,500
I0311 14:12:13.528261   660 net.cpp:141] Setting up data
I0311 14:12:13.528275   660 net.cpp:148] Top shape: 1 3 500 500 (750000)
I0311 14:12:13.528288   660 net.cpp:148] Top shape: 1 1 2 8 (16)
I0311 14:12:13.528292   660 net.cpp:156] Memory required for data: 3000064
I0311 14:12:13.528296   660 layer_factory.hpp:77] Creating layer data_data_0_split
I0311 14:12:13.528304   660 net.cpp:91] Creating Layer data_data_0_split
I0311 14:12:13.528311   660 net.cpp:425] data_data_0_split <- data
I0311 14:12:13.528316   660 net.cpp:399] data_data_0_split -> data_data_0_split_0
I0311 14:12:13.528326   660 net.cpp:399] data_data_0_split -> data_data_0_split_1
I0311 14:12:13.528333   660 net.cpp:399] data_data_0_split -> data_data_0_split_2
I0311 14:12:13.528343   660 net.cpp:399] data_data_0_split -> data_data_0_split_3
I0311 14:12:13.528349   660 net.cpp:399] data_data_0_split -> data_data_0_split_4
I0311 14:12:13.528359   660 net.cpp:399] data_data_0_split -> data_data_0_split_5
I0311 14:12:13.528367   660 net.cpp:399] data_data_0_split -> data_data_0_split_6
I0311 14:12:13.528373   660 net.cpp:399] data_data_0_split -> data_data_0_split_7
I0311 14:12:13.528692   660 net.cpp:141] Setting up data_data_0_split
I0311 14:12:13.528702   660 net.cpp:148] Top shape: 1 3 500 500 (750000)
I0311 14:12:13.528707   660 net.cpp:148] Top shape: 1 3 500 500 (750000)
I0311 14:12:13.528712   660 net.cpp:148] Top shape: 1 3 500 500 (750000)
I0311 14:12:13.528717   660 net.cpp:148] Top shape: 1 3 500 500 (750000)
I0311 14:12:13.528722   660 net.cpp:148] Top shape: 1 3 500 500 (750000)
I0311 14:12:13.528726   660 net.cpp:148] Top shape: 1 3 500 500 (750000)
I0311 14:12:13.528731   660 net.cpp:148] Top shape: 1 3 500 500 (750000)
I0311 14:12:13.528736   660 net.cpp:148] Top shape: 1 3 500 500 (750000)
I0311 14:12:13.528740   660 net.cpp:156] Memory required for data: 27000064
I0311 14:12:13.528744   660 layer_factory.hpp:77] Creating layer conv1_1
I0311 14:12:13.528755   660 net.cpp:91] Creating Layer conv1_1
I0311 14:12:13.528760   660 net.cpp:425] conv1_1 <- data_data_0_split_0
I0311 14:12:13.528767   660 net.cpp:399] conv1_1 -> conv1_1
I0311 14:12:13.530910   660 net.cpp:141] Setting up conv1_1
I0311 14:12:13.530923   660 net.cpp:148] Top shape: 1 64 500 500 (16000000)
I0311 14:12:13.530927   660 net.cpp:156] Memory required for data: 91000064
I0311 14:12:13.530942   660 layer_factory.hpp:77] Creating layer relu1_1
I0311 14:12:13.530951   660 net.cpp:91] Creating Layer relu1_1
I0311 14:12:13.530956   660 net.cpp:425] relu1_1 <- conv1_1
I0311 14:12:13.530961   660 net.cpp:386] relu1_1 -> conv1_1 (in-place)
I0311 14:12:13.531328   660 net.cpp:141] Setting up relu1_1
I0311 14:12:13.531340   660 net.cpp:148] Top shape: 1 64 500 500 (16000000)
I0311 14:12:13.531344   660 net.cpp:156] Memory required for data: 155000064
I0311 14:12:13.531348   660 layer_factory.hpp:77] Creating layer conv1_2
I0311 14:12:13.531358   660 net.cpp:91] Creating Layer conv1_2
I0311 14:12:13.531363   660 net.cpp:425] conv1_2 <- conv1_1
I0311 14:12:13.531371   660 net.cpp:399] conv1_2 -> conv1_2
I0311 14:12:13.533634   660 net.cpp:141] Setting up conv1_2
I0311 14:12:13.533648   660 net.cpp:148] Top shape: 1 64 500 500 (16000000)
I0311 14:12:13.533651   660 net.cpp:156] Memory required for data: 219000064
I0311 14:12:13.533661   660 layer_factory.hpp:77] Creating layer relu1_2
I0311 14:12:13.533668   660 net.cpp:91] Creating Layer relu1_2
I0311 14:12:13.533674   660 net.cpp:425] relu1_2 <- conv1_2
I0311 14:12:13.533679   660 net.cpp:386] relu1_2 -> conv1_2 (in-place)
I0311 14:12:13.534170   660 net.cpp:141] Setting up relu1_2
I0311 14:12:13.534183   660 net.cpp:148] Top shape: 1 64 500 500 (16000000)
I0311 14:12:13.534185   660 net.cpp:156] Memory required for data: 283000064
I0311 14:12:13.534189   660 layer_factory.hpp:77] Creating layer pool1
I0311 14:12:13.534196   660 net.cpp:91] Creating Layer pool1
I0311 14:12:13.534200   660 net.cpp:425] pool1 <- conv1_2
I0311 14:12:13.534207   660 net.cpp:399] pool1 -> pool1
I0311 14:12:13.534263   660 net.cpp:141] Setting up pool1
I0311 14:12:13.534272   660 net.cpp:148] Top shape: 1 64 250 250 (4000000)
I0311 14:12:13.534282   660 net.cpp:156] Memory required for data: 299000064
I0311 14:12:13.534286   660 layer_factory.hpp:77] Creating layer conv2_1
I0311 14:12:13.534296   660 net.cpp:91] Creating Layer conv2_1
I0311 14:12:13.534299   660 net.cpp:425] conv2_1 <- pool1
I0311 14:12:13.534307   660 net.cpp:399] conv2_1 -> conv2_1
I0311 14:12:13.536011   660 net.cpp:141] Setting up conv2_1
I0311 14:12:13.536025   660 net.cpp:148] Top shape: 1 128 250 250 (8000000)
I0311 14:12:13.536028   660 net.cpp:156] Memory required for data: 331000064
I0311 14:12:13.536041   660 layer_factory.hpp:77] Creating layer relu2_1
I0311 14:12:13.536048   660 net.cpp:91] Creating Layer relu2_1
I0311 14:12:13.536053   660 net.cpp:425] relu2_1 <- conv2_1
I0311 14:12:13.536061   660 net.cpp:386] relu2_1 -> conv2_1 (in-place)
I0311 14:12:13.536233   660 net.cpp:141] Setting up relu2_1
I0311 14:12:13.536243   660 net.cpp:148] Top shape: 1 128 250 250 (8000000)
I0311 14:12:13.536247   660 net.cpp:156] Memory required for data: 363000064
I0311 14:12:13.536252   660 layer_factory.hpp:77] Creating layer conv2_2
I0311 14:12:13.536260   660 net.cpp:91] Creating Layer conv2_2
I0311 14:12:13.536264   660 net.cpp:425] conv2_2 <- conv2_1
I0311 14:12:13.536275   660 net.cpp:399] conv2_2 -> conv2_2
I0311 14:12:13.539208   660 net.cpp:141] Setting up conv2_2
I0311 14:12:13.539222   660 net.cpp:148] Top shape: 1 128 250 250 (8000000)
I0311 14:12:13.539225   660 net.cpp:156] Memory required for data: 395000064
I0311 14:12:13.539232   660 layer_factory.hpp:77] Creating layer relu2_2
I0311 14:12:13.539240   660 net.cpp:91] Creating Layer relu2_2
I0311 14:12:13.539245   660 net.cpp:425] relu2_2 <- conv2_2
I0311 14:12:13.539252   660 net.cpp:386] relu2_2 -> conv2_2 (in-place)
I0311 14:12:13.539613   660 net.cpp:141] Setting up relu2_2
I0311 14:12:13.539623   660 net.cpp:148] Top shape: 1 128 250 250 (8000000)
I0311 14:12:13.539628   660 net.cpp:156] Memory required for data: 427000064
I0311 14:12:13.539631   660 layer_factory.hpp:77] Creating layer pool2
I0311 14:12:13.539641   660 net.cpp:91] Creating Layer pool2
I0311 14:12:13.539646   660 net.cpp:425] pool2 <- conv2_2
I0311 14:12:13.539654   660 net.cpp:399] pool2 -> pool2
I0311 14:12:13.539713   660 net.cpp:141] Setting up pool2
I0311 14:12:13.539721   660 net.cpp:148] Top shape: 1 128 125 125 (2000000)
I0311 14:12:13.539726   660 net.cpp:156] Memory required for data: 435000064
I0311 14:12:13.539729   660 layer_factory.hpp:77] Creating layer conv3_1
I0311 14:12:13.539741   660 net.cpp:91] Creating Layer conv3_1
I0311 14:12:13.539746   660 net.cpp:425] conv3_1 <- pool2
I0311 14:12:13.539754   660 net.cpp:399] conv3_1 -> conv3_1
I0311 14:12:13.543735   660 net.cpp:141] Setting up conv3_1
I0311 14:12:13.543748   660 net.cpp:148] Top shape: 1 256 125 125 (4000000)
I0311 14:12:13.543752   660 net.cpp:156] Memory required for data: 451000064
I0311 14:12:13.543762   660 layer_factory.hpp:77] Creating layer relu3_1
I0311 14:12:13.543769   660 net.cpp:91] Creating Layer relu3_1
I0311 14:12:13.543774   660 net.cpp:425] relu3_1 <- conv3_1
I0311 14:12:13.543786   660 net.cpp:386] relu3_1 -> conv3_1 (in-place)
I0311 14:12:13.544153   660 net.cpp:141] Setting up relu3_1
I0311 14:12:13.544165   660 net.cpp:148] Top shape: 1 256 125 125 (4000000)
I0311 14:12:13.544170   660 net.cpp:156] Memory required for data: 467000064
I0311 14:12:13.544174   660 layer_factory.hpp:77] Creating layer conv3_2
I0311 14:12:13.544184   660 net.cpp:91] Creating Layer conv3_2
I0311 14:12:13.544189   660 net.cpp:425] conv3_2 <- conv3_1
I0311 14:12:13.544198   660 net.cpp:399] conv3_2 -> conv3_2
I0311 14:12:13.550811   660 net.cpp:141] Setting up conv3_2
I0311 14:12:13.550823   660 net.cpp:148] Top shape: 1 256 125 125 (4000000)
I0311 14:12:13.550827   660 net.cpp:156] Memory required for data: 483000064
I0311 14:12:13.550834   660 layer_factory.hpp:77] Creating layer relu3_2
I0311 14:12:13.550843   660 net.cpp:91] Creating Layer relu3_2
I0311 14:12:13.550849   660 net.cpp:425] relu3_2 <- conv3_2
I0311 14:12:13.550855   660 net.cpp:386] relu3_2 -> conv3_2 (in-place)
I0311 14:12:13.551054   660 net.cpp:141] Setting up relu3_2
I0311 14:12:13.551064   660 net.cpp:148] Top shape: 1 256 125 125 (4000000)
I0311 14:12:13.551069   660 net.cpp:156] Memory required for data: 499000064
I0311 14:12:13.551072   660 layer_factory.hpp:77] Creating layer conv3_3
I0311 14:12:13.551087   660 net.cpp:91] Creating Layer conv3_3
I0311 14:12:13.551092   660 net.cpp:425] conv3_3 <- conv3_2
I0311 14:12:13.551105   660 net.cpp:399] conv3_3 -> conv3_3
I0311 14:12:13.557737   660 net.cpp:141] Setting up conv3_3
I0311 14:12:13.557752   660 net.cpp:148] Top shape: 1 256 125 125 (4000000)
I0311 14:12:13.557757   660 net.cpp:156] Memory required for data: 515000064
I0311 14:12:13.557765   660 layer_factory.hpp:77] Creating layer relu3_3
I0311 14:12:13.557771   660 net.cpp:91] Creating Layer relu3_3
I0311 14:12:13.557776   660 net.cpp:425] relu3_3 <- conv3_3
I0311 14:12:13.557782   660 net.cpp:386] relu3_3 -> conv3_3 (in-place)
I0311 14:12:13.558153   660 net.cpp:141] Setting up relu3_3
I0311 14:12:13.558167   660 net.cpp:148] Top shape: 1 256 125 125 (4000000)
I0311 14:12:13.558171   660 net.cpp:156] Memory required for data: 531000064
I0311 14:12:13.558176   660 layer_factory.hpp:77] Creating layer pool3
I0311 14:12:13.558183   660 net.cpp:91] Creating Layer pool3
I0311 14:12:13.558187   660 net.cpp:425] pool3 <- conv3_3
I0311 14:12:13.558194   660 net.cpp:399] pool3 -> pool3
I0311 14:12:13.558255   660 net.cpp:141] Setting up pool3
I0311 14:12:13.558264   660 net.cpp:148] Top shape: 1 256 63 63 (1016064)
I0311 14:12:13.558269   660 net.cpp:156] Memory required for data: 535064320
I0311 14:12:13.558271   660 layer_factory.hpp:77] Creating layer conv4_1
I0311 14:12:13.558284   660 net.cpp:91] Creating Layer conv4_1
I0311 14:12:13.558290   660 net.cpp:425] conv4_1 <- pool3
I0311 14:12:13.558296   660 net.cpp:399] conv4_1 -> conv4_1
I0311 14:12:13.569790   660 net.cpp:141] Setting up conv4_1
I0311 14:12:13.569803   660 net.cpp:148] Top shape: 1 512 63 63 (2032128)
I0311 14:12:13.569808   660 net.cpp:156] Memory required for data: 543192832
I0311 14:12:13.569814   660 layer_factory.hpp:77] Creating layer relu4_1
I0311 14:12:13.569823   660 net.cpp:91] Creating Layer relu4_1
I0311 14:12:13.569828   660 net.cpp:425] relu4_1 <- conv4_1
I0311 14:12:13.569838   660 net.cpp:386] relu4_1 -> conv4_1 (in-place)
I0311 14:12:13.570210   660 net.cpp:141] Setting up relu4_1
I0311 14:12:13.570221   660 net.cpp:148] Top shape: 1 512 63 63 (2032128)
I0311 14:12:13.570226   660 net.cpp:156] Memory required for data: 551321344
I0311 14:12:13.570230   660 layer_factory.hpp:77] Creating layer conv4_2
I0311 14:12:13.570243   660 net.cpp:91] Creating Layer conv4_2
I0311 14:12:13.570248   660 net.cpp:425] conv4_2 <- conv4_1
I0311 14:12:13.570256   660 net.cpp:399] conv4_2 -> conv4_2
I0311 14:12:13.593535   660 net.cpp:141] Setting up conv4_2
I0311 14:12:13.593551   660 net.cpp:148] Top shape: 1 512 63 63 (2032128)
I0311 14:12:13.593555   660 net.cpp:156] Memory required for data: 559449856
I0311 14:12:13.593569   660 layer_factory.hpp:77] Creating layer relu4_2
I0311 14:12:13.593578   660 net.cpp:91] Creating Layer relu4_2
I0311 14:12:13.593583   660 net.cpp:425] relu4_2 <- conv4_2
I0311 14:12:13.593590   660 net.cpp:386] relu4_2 -> conv4_2 (in-place)
I0311 14:12:13.593791   660 net.cpp:141] Setting up relu4_2
I0311 14:12:13.593801   660 net.cpp:148] Top shape: 1 512 63 63 (2032128)
I0311 14:12:13.593806   660 net.cpp:156] Memory required for data: 567578368
I0311 14:12:13.593809   660 layer_factory.hpp:77] Creating layer conv4_3
I0311 14:12:13.593824   660 net.cpp:91] Creating Layer conv4_3
I0311 14:12:13.593829   660 net.cpp:425] conv4_3 <- conv4_2
I0311 14:12:13.593837   660 net.cpp:399] conv4_3 -> conv4_3
I0311 14:12:13.616725   660 net.cpp:141] Setting up conv4_3
I0311 14:12:13.616751   660 net.cpp:148] Top shape: 1 512 63 63 (2032128)
I0311 14:12:13.616755   660 net.cpp:156] Memory required for data: 575706880
I0311 14:12:13.616762   660 layer_factory.hpp:77] Creating layer relu4_3
I0311 14:12:13.616773   660 net.cpp:91] Creating Layer relu4_3
I0311 14:12:13.616788   660 net.cpp:425] relu4_3 <- conv4_3
I0311 14:12:13.616796   660 net.cpp:386] relu4_3 -> conv4_3 (in-place)
I0311 14:12:13.617177   660 net.cpp:141] Setting up relu4_3
I0311 14:12:13.617187   660 net.cpp:148] Top shape: 1 512 63 63 (2032128)
I0311 14:12:13.617192   660 net.cpp:156] Memory required for data: 583835392
I0311 14:12:13.617195   660 layer_factory.hpp:77] Creating layer conv4_3_relu4_3_0_split
I0311 14:12:13.617205   660 net.cpp:91] Creating Layer conv4_3_relu4_3_0_split
I0311 14:12:13.617209   660 net.cpp:425] conv4_3_relu4_3_0_split <- conv4_3
I0311 14:12:13.617214   660 net.cpp:399] conv4_3_relu4_3_0_split -> conv4_3_relu4_3_0_split_0
I0311 14:12:13.617223   660 net.cpp:399] conv4_3_relu4_3_0_split -> conv4_3_relu4_3_0_split_1
I0311 14:12:13.617285   660 net.cpp:141] Setting up conv4_3_relu4_3_0_split
I0311 14:12:13.617292   660 net.cpp:148] Top shape: 1 512 63 63 (2032128)
I0311 14:12:13.617298   660 net.cpp:148] Top shape: 1 512 63 63 (2032128)
I0311 14:12:13.617301   660 net.cpp:156] Memory required for data: 600092416
I0311 14:12:13.617305   660 layer_factory.hpp:77] Creating layer pool4
I0311 14:12:13.617313   660 net.cpp:91] Creating Layer pool4
I0311 14:12:13.617318   660 net.cpp:425] pool4 <- conv4_3_relu4_3_0_split_0
I0311 14:12:13.617326   660 net.cpp:399] pool4 -> pool4
I0311 14:12:13.617383   660 net.cpp:141] Setting up pool4
I0311 14:12:13.617391   660 net.cpp:148] Top shape: 1 512 32 32 (524288)
I0311 14:12:13.617395   660 net.cpp:156] Memory required for data: 602189568
I0311 14:12:13.617399   660 layer_factory.hpp:77] Creating layer conv5_1
I0311 14:12:13.617413   660 net.cpp:91] Creating Layer conv5_1
I0311 14:12:13.617419   660 net.cpp:425] conv5_1 <- pool4
I0311 14:12:13.617425   660 net.cpp:399] conv5_1 -> conv5_1
I0311 14:12:13.639571   660 net.cpp:141] Setting up conv5_1
I0311 14:12:13.639587   660 net.cpp:148] Top shape: 1 512 32 32 (524288)
I0311 14:12:13.639591   660 net.cpp:156] Memory required for data: 604286720
I0311 14:12:13.639598   660 layer_factory.hpp:77] Creating layer relu5_1
I0311 14:12:13.639610   660 net.cpp:91] Creating Layer relu5_1
I0311 14:12:13.639614   660 net.cpp:425] relu5_1 <- conv5_1
I0311 14:12:13.639623   660 net.cpp:386] relu5_1 -> conv5_1 (in-place)
I0311 14:12:13.640008   660 net.cpp:141] Setting up relu5_1
I0311 14:12:13.640019   660 net.cpp:148] Top shape: 1 512 32 32 (524288)
I0311 14:12:13.640024   660 net.cpp:156] Memory required for data: 606383872
I0311 14:12:13.640028   660 layer_factory.hpp:77] Creating layer conv5_2
I0311 14:12:13.640041   660 net.cpp:91] Creating Layer conv5_2
I0311 14:12:13.640048   660 net.cpp:425] conv5_2 <- conv5_1
I0311 14:12:13.640055   660 net.cpp:399] conv5_2 -> conv5_2
I0311 14:12:13.663733   660 net.cpp:141] Setting up conv5_2
I0311 14:12:13.663748   660 net.cpp:148] Top shape: 1 512 32 32 (524288)
I0311 14:12:13.663753   660 net.cpp:156] Memory required for data: 608481024
I0311 14:12:13.663759   660 layer_factory.hpp:77] Creating layer relu5_2
I0311 14:12:13.663766   660 net.cpp:91] Creating Layer relu5_2
I0311 14:12:13.663770   660 net.cpp:425] relu5_2 <- conv5_2
I0311 14:12:13.663776   660 net.cpp:386] relu5_2 -> conv5_2 (in-place)
I0311 14:12:13.663967   660 net.cpp:141] Setting up relu5_2
I0311 14:12:13.663978   660 net.cpp:148] Top shape: 1 512 32 32 (524288)
I0311 14:12:13.663982   660 net.cpp:156] Memory required for data: 610578176
I0311 14:12:13.663986   660 layer_factory.hpp:77] Creating layer conv5_3
I0311 14:12:13.663998   660 net.cpp:91] Creating Layer conv5_3
I0311 14:12:13.664005   660 net.cpp:425] conv5_3 <- conv5_2
I0311 14:12:13.664012   660 net.cpp:399] conv5_3 -> conv5_3
I0311 14:12:13.686137   660 net.cpp:141] Setting up conv5_3
I0311 14:12:13.686156   660 net.cpp:148] Top shape: 1 512 32 32 (524288)
I0311 14:12:13.686159   660 net.cpp:156] Memory required for data: 612675328
I0311 14:12:13.686167   660 layer_factory.hpp:77] Creating layer relu5_3
I0311 14:12:13.686180   660 net.cpp:91] Creating Layer relu5_3
I0311 14:12:13.686184   660 net.cpp:425] relu5_3 <- conv5_3
I0311 14:12:13.686203   660 net.cpp:386] relu5_3 -> conv5_3 (in-place)
I0311 14:12:13.686592   660 net.cpp:141] Setting up relu5_3
I0311 14:12:13.686604   660 net.cpp:148] Top shape: 1 512 32 32 (524288)
I0311 14:12:13.686607   660 net.cpp:156] Memory required for data: 614772480
I0311 14:12:13.686611   660 layer_factory.hpp:77] Creating layer pool5
I0311 14:12:13.686619   660 net.cpp:91] Creating Layer pool5
I0311 14:12:13.686622   660 net.cpp:425] pool5 <- conv5_3
I0311 14:12:13.686633   660 net.cpp:399] pool5 -> pool5
I0311 14:12:13.686697   660 net.cpp:141] Setting up pool5
I0311 14:12:13.686707   660 net.cpp:148] Top shape: 1 512 32 32 (524288)
I0311 14:12:13.686710   660 net.cpp:156] Memory required for data: 616869632
I0311 14:12:13.686719   660 layer_factory.hpp:77] Creating layer fc6
I0311 14:12:13.686733   660 net.cpp:91] Creating Layer fc6
I0311 14:12:13.686738   660 net.cpp:425] fc6 <- pool5
I0311 14:12:13.686745   660 net.cpp:399] fc6 -> fc6
I0311 14:12:13.730455   660 net.cpp:141] Setting up fc6
I0311 14:12:13.730479   660 net.cpp:148] Top shape: 1 1024 32 32 (1048576)
I0311 14:12:13.730484   660 net.cpp:156] Memory required for data: 621063936
I0311 14:12:13.730492   660 layer_factory.hpp:77] Creating layer relu6
I0311 14:12:13.730504   660 net.cpp:91] Creating Layer relu6
I0311 14:12:13.730509   660 net.cpp:425] relu6 <- fc6
I0311 14:12:13.730515   660 net.cpp:386] relu6 -> fc6 (in-place)
I0311 14:12:13.730752   660 net.cpp:141] Setting up relu6
I0311 14:12:13.730762   660 net.cpp:148] Top shape: 1 1024 32 32 (1048576)
I0311 14:12:13.730767   660 net.cpp:156] Memory required for data: 625258240
I0311 14:12:13.730772   660 layer_factory.hpp:77] Creating layer fc7
I0311 14:12:13.730787   660 net.cpp:91] Creating Layer fc7
I0311 14:12:13.730792   660 net.cpp:425] fc7 <- fc6
I0311 14:12:13.730799   660 net.cpp:399] fc7 -> fc7
I0311 14:12:13.741946   660 net.cpp:141] Setting up fc7
I0311 14:12:13.741958   660 net.cpp:148] Top shape: 1 1024 32 32 (1048576)
I0311 14:12:13.741962   660 net.cpp:156] Memory required for data: 629452544
I0311 14:12:13.741971   660 layer_factory.hpp:77] Creating layer relu7
I0311 14:12:13.741978   660 net.cpp:91] Creating Layer relu7
I0311 14:12:13.741983   660 net.cpp:425] relu7 <- fc7
I0311 14:12:13.741988   660 net.cpp:386] relu7 -> fc7 (in-place)
I0311 14:12:13.742367   660 net.cpp:141] Setting up relu7
I0311 14:12:13.742379   660 net.cpp:148] Top shape: 1 1024 32 32 (1048576)
I0311 14:12:13.742383   660 net.cpp:156] Memory required for data: 633646848
I0311 14:12:13.742386   660 layer_factory.hpp:77] Creating layer fc7_relu7_0_split
I0311 14:12:13.742396   660 net.cpp:91] Creating Layer fc7_relu7_0_split
I0311 14:12:13.742400   660 net.cpp:425] fc7_relu7_0_split <- fc7
I0311 14:12:13.742406   660 net.cpp:399] fc7_relu7_0_split -> fc7_relu7_0_split_0
I0311 14:12:13.742420   660 net.cpp:399] fc7_relu7_0_split -> fc7_relu7_0_split_1
I0311 14:12:13.742434   660 net.cpp:399] fc7_relu7_0_split -> fc7_relu7_0_split_2
I0311 14:12:13.742441   660 net.cpp:399] fc7_relu7_0_split -> fc7_relu7_0_split_3
I0311 14:12:13.742537   660 net.cpp:141] Setting up fc7_relu7_0_split
I0311 14:12:13.742547   660 net.cpp:148] Top shape: 1 1024 32 32 (1048576)
I0311 14:12:13.742552   660 net.cpp:148] Top shape: 1 1024 32 32 (1048576)
I0311 14:12:13.742558   660 net.cpp:148] Top shape: 1 1024 32 32 (1048576)
I0311 14:12:13.742563   660 net.cpp:148] Top shape: 1 1024 32 32 (1048576)
I0311 14:12:13.742565   660 net.cpp:156] Memory required for data: 650424064
I0311 14:12:13.742569   660 layer_factory.hpp:77] Creating layer conv6_1
I0311 14:12:13.742584   660 net.cpp:91] Creating Layer conv6_1
I0311 14:12:13.742589   660 net.cpp:425] conv6_1 <- fc7_relu7_0_split_0
I0311 14:12:13.742597   660 net.cpp:399] conv6_1 -> conv6_1
I0311 14:12:13.746426   660 net.cpp:141] Setting up conv6_1
I0311 14:12:13.746438   660 net.cpp:148] Top shape: 1 256 32 32 (262144)
I0311 14:12:13.746443   660 net.cpp:156] Memory required for data: 651472640
I0311 14:12:13.746449   660 layer_factory.hpp:77] Creating layer conv6_1_relu
I0311 14:12:13.746467   660 net.cpp:91] Creating Layer conv6_1_relu
I0311 14:12:13.746471   660 net.cpp:425] conv6_1_relu <- conv6_1
I0311 14:12:13.746477   660 net.cpp:386] conv6_1_relu -> conv6_1 (in-place)
I0311 14:12:13.746860   660 net.cpp:141] Setting up conv6_1_relu
I0311 14:12:13.746871   660 net.cpp:148] Top shape: 1 256 32 32 (262144)
I0311 14:12:13.746876   660 net.cpp:156] Memory required for data: 652521216
I0311 14:12:13.746879   660 layer_factory.hpp:77] Creating layer conv6_2
I0311 14:12:13.746893   660 net.cpp:91] Creating Layer conv6_2
I0311 14:12:13.746898   660 net.cpp:425] conv6_2 <- conv6_1
I0311 14:12:13.746906   660 net.cpp:399] conv6_2 -> conv6_2
I0311 14:12:13.758779   660 net.cpp:141] Setting up conv6_2
I0311 14:12:13.758791   660 net.cpp:148] Top shape: 1 512 16 16 (131072)
I0311 14:12:13.758795   660 net.cpp:156] Memory required for data: 653045504
I0311 14:12:13.758812   660 layer_factory.hpp:77] Creating layer conv6_2_relu
I0311 14:12:13.758819   660 net.cpp:91] Creating Layer conv6_2_relu
I0311 14:12:13.758823   660 net.cpp:425] conv6_2_relu <- conv6_2
I0311 14:12:13.758831   660 net.cpp:386] conv6_2_relu -> conv6_2 (in-place)
I0311 14:12:13.759024   660 net.cpp:141] Setting up conv6_2_relu
I0311 14:12:13.759034   660 net.cpp:148] Top shape: 1 512 16 16 (131072)
I0311 14:12:13.759038   660 net.cpp:156] Memory required for data: 653569792
I0311 14:12:13.759042   660 layer_factory.hpp:77] Creating layer conv6_2_conv6_2_relu_0_split
I0311 14:12:13.759050   660 net.cpp:91] Creating Layer conv6_2_conv6_2_relu_0_split
I0311 14:12:13.759054   660 net.cpp:425] conv6_2_conv6_2_relu_0_split <- conv6_2
I0311 14:12:13.759063   660 net.cpp:399] conv6_2_conv6_2_relu_0_split -> conv6_2_conv6_2_relu_0_split_0
I0311 14:12:13.759073   660 net.cpp:399] conv6_2_conv6_2_relu_0_split -> conv6_2_conv6_2_relu_0_split_1
I0311 14:12:13.759079   660 net.cpp:399] conv6_2_conv6_2_relu_0_split -> conv6_2_conv6_2_relu_0_split_2
I0311 14:12:13.759088   660 net.cpp:399] conv6_2_conv6_2_relu_0_split -> conv6_2_conv6_2_relu_0_split_3
I0311 14:12:13.759177   660 net.cpp:141] Setting up conv6_2_conv6_2_relu_0_split
I0311 14:12:13.759186   660 net.cpp:148] Top shape: 1 512 16 16 (131072)
I0311 14:12:13.759191   660 net.cpp:148] Top shape: 1 512 16 16 (131072)
I0311 14:12:13.759196   660 net.cpp:148] Top shape: 1 512 16 16 (131072)
I0311 14:12:13.759201   660 net.cpp:148] Top shape: 1 512 16 16 (131072)
I0311 14:12:13.759204   660 net.cpp:156] Memory required for data: 655666944
I0311 14:12:13.759208   660 layer_factory.hpp:77] Creating layer conv7_1
I0311 14:12:13.759222   660 net.cpp:91] Creating Layer conv7_1
I0311 14:12:13.759227   660 net.cpp:425] conv7_1 <- conv6_2_conv6_2_relu_0_split_0
I0311 14:12:13.759234   660 net.cpp:399] conv7_1 -> conv7_1
I0311 14:12:13.761716   660 net.cpp:141] Setting up conv7_1
I0311 14:12:13.761730   660 net.cpp:148] Top shape: 1 128 16 16 (32768)
I0311 14:12:13.761734   660 net.cpp:156] Memory required for data: 655798016
I0311 14:12:13.761741   660 layer_factory.hpp:77] Creating layer conv7_1_relu
I0311 14:12:13.761749   660 net.cpp:91] Creating Layer conv7_1_relu
I0311 14:12:13.761752   660 net.cpp:425] conv7_1_relu <- conv7_1
I0311 14:12:13.761757   660 net.cpp:386] conv7_1_relu -> conv7_1 (in-place)
I0311 14:12:13.762154   660 net.cpp:141] Setting up conv7_1_relu
I0311 14:12:13.762166   660 net.cpp:148] Top shape: 1 128 16 16 (32768)
I0311 14:12:13.762169   660 net.cpp:156] Memory required for data: 655929088
I0311 14:12:13.762173   660 layer_factory.hpp:77] Creating layer conv7_2
I0311 14:12:13.762187   660 net.cpp:91] Creating Layer conv7_2
I0311 14:12:13.762190   660 net.cpp:425] conv7_2 <- conv7_1
I0311 14:12:13.762199   660 net.cpp:399] conv7_2 -> conv7_2
I0311 14:12:13.766196   660 net.cpp:141] Setting up conv7_2
I0311 14:12:13.766207   660 net.cpp:148] Top shape: 1 256 8 8 (16384)
I0311 14:12:13.766211   660 net.cpp:156] Memory required for data: 655994624
I0311 14:12:13.766218   660 layer_factory.hpp:77] Creating layer conv7_2_relu
I0311 14:12:13.766227   660 net.cpp:91] Creating Layer conv7_2_relu
I0311 14:12:13.766237   660 net.cpp:425] conv7_2_relu <- conv7_2
I0311 14:12:13.766243   660 net.cpp:386] conv7_2_relu -> conv7_2 (in-place)
I0311 14:12:13.766628   660 net.cpp:141] Setting up conv7_2_relu
I0311 14:12:13.766639   660 net.cpp:148] Top shape: 1 256 8 8 (16384)
I0311 14:12:13.766645   660 net.cpp:156] Memory required for data: 656060160
I0311 14:12:13.766649   660 layer_factory.hpp:77] Creating layer conv7_2_conv7_2_relu_0_split
I0311 14:12:13.766655   660 net.cpp:91] Creating Layer conv7_2_conv7_2_relu_0_split
I0311 14:12:13.766659   660 net.cpp:425] conv7_2_conv7_2_relu_0_split <- conv7_2
I0311 14:12:13.766666   660 net.cpp:399] conv7_2_conv7_2_relu_0_split -> conv7_2_conv7_2_relu_0_split_0
I0311 14:12:13.766674   660 net.cpp:399] conv7_2_conv7_2_relu_0_split -> conv7_2_conv7_2_relu_0_split_1
I0311 14:12:13.766682   660 net.cpp:399] conv7_2_conv7_2_relu_0_split -> conv7_2_conv7_2_relu_0_split_2
I0311 14:12:13.766692   660 net.cpp:399] conv7_2_conv7_2_relu_0_split -> conv7_2_conv7_2_relu_0_split_3
I0311 14:12:13.766791   660 net.cpp:141] Setting up conv7_2_conv7_2_relu_0_split
I0311 14:12:13.766800   660 net.cpp:148] Top shape: 1 256 8 8 (16384)
I0311 14:12:13.766805   660 net.cpp:148] Top shape: 1 256 8 8 (16384)
I0311 14:12:13.766810   660 net.cpp:148] Top shape: 1 256 8 8 (16384)
I0311 14:12:13.766815   660 net.cpp:148] Top shape: 1 256 8 8 (16384)
I0311 14:12:13.766819   660 net.cpp:156] Memory required for data: 656322304
I0311 14:12:13.766822   660 layer_factory.hpp:77] Creating layer conv8_1
I0311 14:12:13.766835   660 net.cpp:91] Creating Layer conv8_1
I0311 14:12:13.766840   660 net.cpp:425] conv8_1 <- conv7_2_conv7_2_relu_0_split_0
I0311 14:12:13.766850   660 net.cpp:399] conv8_1 -> conv8_1
I0311 14:12:13.768406   660 net.cpp:141] Setting up conv8_1
I0311 14:12:13.768419   660 net.cpp:148] Top shape: 1 128 8 8 (8192)
I0311 14:12:13.768422   660 net.cpp:156] Memory required for data: 656355072
I0311 14:12:13.768429   660 layer_factory.hpp:77] Creating layer conv8_1_relu
I0311 14:12:13.768438   660 net.cpp:91] Creating Layer conv8_1_relu
I0311 14:12:13.768442   660 net.cpp:425] conv8_1_relu <- conv8_1
I0311 14:12:13.768448   660 net.cpp:386] conv8_1_relu -> conv8_1 (in-place)
I0311 14:12:13.768649   660 net.cpp:141] Setting up conv8_1_relu
I0311 14:12:13.768659   660 net.cpp:148] Top shape: 1 128 8 8 (8192)
I0311 14:12:13.768663   660 net.cpp:156] Memory required for data: 656387840
I0311 14:12:13.768667   660 layer_factory.hpp:77] Creating layer conv8_2
I0311 14:12:13.768679   660 net.cpp:91] Creating Layer conv8_2
I0311 14:12:13.768684   660 net.cpp:425] conv8_2 <- conv8_1
I0311 14:12:13.768694   660 net.cpp:399] conv8_2 -> conv8_2
I0311 14:12:13.772706   660 net.cpp:141] Setting up conv8_2
I0311 14:12:13.772718   660 net.cpp:148] Top shape: 1 256 4 4 (4096)
I0311 14:12:13.772722   660 net.cpp:156] Memory required for data: 656404224
I0311 14:12:13.772728   660 layer_factory.hpp:77] Creating layer conv8_2_relu
I0311 14:12:13.772738   660 net.cpp:91] Creating Layer conv8_2_relu
I0311 14:12:13.772742   660 net.cpp:425] conv8_2_relu <- conv8_2
I0311 14:12:13.772750   660 net.cpp:386] conv8_2_relu -> conv8_2 (in-place)
I0311 14:12:13.773211   660 net.cpp:141] Setting up conv8_2_relu
I0311 14:12:13.773222   660 net.cpp:148] Top shape: 1 256 4 4 (4096)
I0311 14:12:13.773226   660 net.cpp:156] Memory required for data: 656420608
I0311 14:12:13.773231   660 layer_factory.hpp:77] Creating layer conv8_2_conv8_2_relu_0_split
I0311 14:12:13.773238   660 net.cpp:91] Creating Layer conv8_2_conv8_2_relu_0_split
I0311 14:12:13.773243   660 net.cpp:425] conv8_2_conv8_2_relu_0_split <- conv8_2
I0311 14:12:13.773252   660 net.cpp:399] conv8_2_conv8_2_relu_0_split -> conv8_2_conv8_2_relu_0_split_0
I0311 14:12:13.773260   660 net.cpp:399] conv8_2_conv8_2_relu_0_split -> conv8_2_conv8_2_relu_0_split_1
I0311 14:12:13.773267   660 net.cpp:399] conv8_2_conv8_2_relu_0_split -> conv8_2_conv8_2_relu_0_split_2
I0311 14:12:13.773275   660 net.cpp:399] conv8_2_conv8_2_relu_0_split -> conv8_2_conv8_2_relu_0_split_3
I0311 14:12:13.773385   660 net.cpp:141] Setting up conv8_2_conv8_2_relu_0_split
I0311 14:12:13.773397   660 net.cpp:148] Top shape: 1 256 4 4 (4096)
I0311 14:12:13.773402   660 net.cpp:148] Top shape: 1 256 4 4 (4096)
I0311 14:12:13.773407   660 net.cpp:148] Top shape: 1 256 4 4 (4096)
I0311 14:12:13.773412   660 net.cpp:148] Top shape: 1 256 4 4 (4096)
I0311 14:12:13.773416   660 net.cpp:156] Memory required for data: 656486144
I0311 14:12:13.773421   660 layer_factory.hpp:77] Creating layer conv9_1
I0311 14:12:13.773432   660 net.cpp:91] Creating Layer conv9_1
I0311 14:12:13.773437   660 net.cpp:425] conv9_1 <- conv8_2_conv8_2_relu_0_split_0
I0311 14:12:13.773445   660 net.cpp:399] conv9_1 -> conv9_1
I0311 14:12:13.774832   660 net.cpp:141] Setting up conv9_1
I0311 14:12:13.774844   660 net.cpp:148] Top shape: 1 128 4 4 (2048)
I0311 14:12:13.774848   660 net.cpp:156] Memory required for data: 656494336
I0311 14:12:13.774855   660 layer_factory.hpp:77] Creating layer conv9_1_relu
I0311 14:12:13.774862   660 net.cpp:91] Creating Layer conv9_1_relu
I0311 14:12:13.774865   660 net.cpp:425] conv9_1_relu <- conv9_1
I0311 14:12:13.774873   660 net.cpp:386] conv9_1_relu -> conv9_1 (in-place)
I0311 14:12:13.775264   660 net.cpp:141] Setting up conv9_1_relu
I0311 14:12:13.775275   660 net.cpp:148] Top shape: 1 128 4 4 (2048)
I0311 14:12:13.775279   660 net.cpp:156] Memory required for data: 656502528
I0311 14:12:13.775285   660 layer_factory.hpp:77] Creating layer conv9_2
I0311 14:12:13.775296   660 net.cpp:91] Creating Layer conv9_2
I0311 14:12:13.775302   660 net.cpp:425] conv9_2 <- conv9_1
I0311 14:12:13.775312   660 net.cpp:399] conv9_2 -> conv9_2
I0311 14:12:13.779469   660 net.cpp:141] Setting up conv9_2
I0311 14:12:13.779481   660 net.cpp:148] Top shape: 1 256 2 2 (1024)
I0311 14:12:13.779485   660 net.cpp:156] Memory required for data: 656506624
I0311 14:12:13.779492   660 layer_factory.hpp:77] Creating layer conv9_2_relu
I0311 14:12:13.779500   660 net.cpp:91] Creating Layer conv9_2_relu
I0311 14:12:13.779503   660 net.cpp:425] conv9_2_relu <- conv9_2
I0311 14:12:13.779510   660 net.cpp:386] conv9_2_relu -> conv9_2 (in-place)
I0311 14:12:13.779942   660 net.cpp:141] Setting up conv9_2_relu
I0311 14:12:13.779953   660 net.cpp:148] Top shape: 1 256 2 2 (1024)
I0311 14:12:13.779958   660 net.cpp:156] Memory required for data: 656510720
I0311 14:12:13.779963   660 layer_factory.hpp:77] Creating layer conv9_2_conv9_2_relu_0_split
I0311 14:12:13.779969   660 net.cpp:91] Creating Layer conv9_2_conv9_2_relu_0_split
I0311 14:12:13.779974   660 net.cpp:425] conv9_2_conv9_2_relu_0_split <- conv9_2
I0311 14:12:13.779983   660 net.cpp:399] conv9_2_conv9_2_relu_0_split -> conv9_2_conv9_2_relu_0_split_0
I0311 14:12:13.779992   660 net.cpp:399] conv9_2_conv9_2_relu_0_split -> conv9_2_conv9_2_relu_0_split_1
I0311 14:12:13.779999   660 net.cpp:399] conv9_2_conv9_2_relu_0_split -> conv9_2_conv9_2_relu_0_split_2
I0311 14:12:13.780006   660 net.cpp:399] conv9_2_conv9_2_relu_0_split -> conv9_2_conv9_2_relu_0_split_3
I0311 14:12:13.780110   660 net.cpp:141] Setting up conv9_2_conv9_2_relu_0_split
I0311 14:12:13.780119   660 net.cpp:148] Top shape: 1 256 2 2 (1024)
I0311 14:12:13.780124   660 net.cpp:148] Top shape: 1 256 2 2 (1024)
I0311 14:12:13.780129   660 net.cpp:148] Top shape: 1 256 2 2 (1024)
I0311 14:12:13.780133   660 net.cpp:148] Top shape: 1 256 2 2 (1024)
I0311 14:12:13.780136   660 net.cpp:156] Memory required for data: 656527104
I0311 14:12:13.780141   660 layer_factory.hpp:77] Creating layer pool6
I0311 14:12:13.780149   660 net.cpp:91] Creating Layer pool6
I0311 14:12:13.780154   660 net.cpp:425] pool6 <- conv9_2_conv9_2_relu_0_split_0
I0311 14:12:13.780164   660 net.cpp:399] pool6 -> pool6
I0311 14:12:13.780580   660 net.cpp:141] Setting up pool6
I0311 14:12:13.780591   660 net.cpp:148] Top shape: 1 256 1 1 (256)
I0311 14:12:13.780596   660 net.cpp:156] Memory required for data: 656528128
I0311 14:12:13.780599   660 layer_factory.hpp:77] Creating layer pool6_pool6_0_split
I0311 14:12:13.780606   660 net.cpp:91] Creating Layer pool6_pool6_0_split
I0311 14:12:13.780617   660 net.cpp:425] pool6_pool6_0_split <- pool6
I0311 14:12:13.780627   660 net.cpp:399] pool6_pool6_0_split -> pool6_pool6_0_split_0
I0311 14:12:13.780634   660 net.cpp:399] pool6_pool6_0_split -> pool6_pool6_0_split_1
I0311 14:12:13.780642   660 net.cpp:399] pool6_pool6_0_split -> pool6_pool6_0_split_2
I0311 14:12:13.780724   660 net.cpp:141] Setting up pool6_pool6_0_split
I0311 14:12:13.780732   660 net.cpp:148] Top shape: 1 256 1 1 (256)
I0311 14:12:13.780737   660 net.cpp:148] Top shape: 1 256 1 1 (256)
I0311 14:12:13.780741   660 net.cpp:148] Top shape: 1 256 1 1 (256)
I0311 14:12:13.780745   660 net.cpp:156] Memory required for data: 656531200
I0311 14:12:13.780748   660 layer_factory.hpp:77] Creating layer conv4_3_norm
I0311 14:12:13.780758   660 net.cpp:91] Creating Layer conv4_3_norm
I0311 14:12:13.780763   660 net.cpp:425] conv4_3_norm <- conv4_3_relu4_3_0_split_1
I0311 14:12:13.780772   660 net.cpp:399] conv4_3_norm -> conv4_3_norm
I0311 14:12:13.781033   660 net.cpp:141] Setting up conv4_3_norm
I0311 14:12:13.781044   660 net.cpp:148] Top shape: 1 512 63 63 (2032128)
I0311 14:12:13.781049   660 net.cpp:156] Memory required for data: 664659712
I0311 14:12:13.781054   660 layer_factory.hpp:77] Creating layer conv4_3_norm_conv4_3_norm_0_split
I0311 14:12:13.781060   660 net.cpp:91] Creating Layer conv4_3_norm_conv4_3_norm_0_split
I0311 14:12:13.781064   660 net.cpp:425] conv4_3_norm_conv4_3_norm_0_split <- conv4_3_norm
I0311 14:12:13.781070   660 net.cpp:399] conv4_3_norm_conv4_3_norm_0_split -> conv4_3_norm_conv4_3_norm_0_split_0
I0311 14:12:13.781077   660 net.cpp:399] conv4_3_norm_conv4_3_norm_0_split -> conv4_3_norm_conv4_3_norm_0_split_1
I0311 14:12:13.781083   660 net.cpp:399] conv4_3_norm_conv4_3_norm_0_split -> conv4_3_norm_conv4_3_norm_0_split_2
I0311 14:12:13.781154   660 net.cpp:141] Setting up conv4_3_norm_conv4_3_norm_0_split
I0311 14:12:13.781163   660 net.cpp:148] Top shape: 1 512 63 63 (2032128)
I0311 14:12:13.781167   660 net.cpp:148] Top shape: 1 512 63 63 (2032128)
I0311 14:12:13.781172   660 net.cpp:148] Top shape: 1 512 63 63 (2032128)
I0311 14:12:13.781174   660 net.cpp:156] Memory required for data: 689045248
I0311 14:12:13.781177   660 layer_factory.hpp:77] Creating layer conv4_3_norm_mbox_loc
I0311 14:12:13.781189   660 net.cpp:91] Creating Layer conv4_3_norm_mbox_loc
I0311 14:12:13.781194   660 net.cpp:425] conv4_3_norm_mbox_loc <- conv4_3_norm_conv4_3_norm_0_split_0
I0311 14:12:13.781203   660 net.cpp:399] conv4_3_norm_mbox_loc -> conv4_3_norm_mbox_loc
I0311 14:12:13.783005   660 net.cpp:141] Setting up conv4_3_norm_mbox_loc
I0311 14:12:13.783018   660 net.cpp:148] Top shape: 1 12 63 63 (47628)
I0311 14:12:13.783022   660 net.cpp:156] Memory required for data: 689235760
I0311 14:12:13.783030   660 layer_factory.hpp:77] Creating layer conv4_3_norm_mbox_loc_perm
I0311 14:12:13.783046   660 net.cpp:91] Creating Layer conv4_3_norm_mbox_loc_perm
I0311 14:12:13.783052   660 net.cpp:425] conv4_3_norm_mbox_loc_perm <- conv4_3_norm_mbox_loc
I0311 14:12:13.783061   660 net.cpp:399] conv4_3_norm_mbox_loc_perm -> conv4_3_norm_mbox_loc_perm
I0311 14:12:13.783223   660 net.cpp:141] Setting up conv4_3_norm_mbox_loc_perm
I0311 14:12:13.783232   660 net.cpp:148] Top shape: 1 63 63 12 (47628)
I0311 14:12:13.783236   660 net.cpp:156] Memory required for data: 689426272
I0311 14:12:13.783241   660 layer_factory.hpp:77] Creating layer conv4_3_norm_mbox_loc_flat
I0311 14:12:13.783252   660 net.cpp:91] Creating Layer conv4_3_norm_mbox_loc_flat
I0311 14:12:13.783257   660 net.cpp:425] conv4_3_norm_mbox_loc_flat <- conv4_3_norm_mbox_loc_perm
I0311 14:12:13.783263   660 net.cpp:399] conv4_3_norm_mbox_loc_flat -> conv4_3_norm_mbox_loc_flat
I0311 14:12:13.783305   660 net.cpp:141] Setting up conv4_3_norm_mbox_loc_flat
I0311 14:12:13.783313   660 net.cpp:148] Top shape: 1 47628 (47628)
I0311 14:12:13.783318   660 net.cpp:156] Memory required for data: 689616784
I0311 14:12:13.783321   660 layer_factory.hpp:77] Creating layer conv4_3_norm_mbox_conf
I0311 14:12:13.783339   660 net.cpp:91] Creating Layer conv4_3_norm_mbox_conf
I0311 14:12:13.783344   660 net.cpp:425] conv4_3_norm_mbox_conf <- conv4_3_norm_conv4_3_norm_0_split_1
I0311 14:12:13.783354   660 net.cpp:399] conv4_3_norm_mbox_conf -> conv4_3_norm_mbox_conf
I0311 14:12:13.787413   660 net.cpp:141] Setting up conv4_3_norm_mbox_conf
I0311 14:12:13.787426   660 net.cpp:148] Top shape: 1 63 63 63 (250047)
I0311 14:12:13.787430   660 net.cpp:156] Memory required for data: 690616972
I0311 14:12:13.787436   660 layer_factory.hpp:77] Creating layer conv4_3_norm_mbox_conf_perm
I0311 14:12:13.787444   660 net.cpp:91] Creating Layer conv4_3_norm_mbox_conf_perm
I0311 14:12:13.787451   660 net.cpp:425] conv4_3_norm_mbox_conf_perm <- conv4_3_norm_mbox_conf
I0311 14:12:13.787459   660 net.cpp:399] conv4_3_norm_mbox_conf_perm -> conv4_3_norm_mbox_conf_perm
I0311 14:12:13.787616   660 net.cpp:141] Setting up conv4_3_norm_mbox_conf_perm
I0311 14:12:13.787626   660 net.cpp:148] Top shape: 1 63 63 63 (250047)
I0311 14:12:13.787629   660 net.cpp:156] Memory required for data: 691617160
I0311 14:12:13.787633   660 layer_factory.hpp:77] Creating layer conv4_3_norm_mbox_conf_flat
I0311 14:12:13.787641   660 net.cpp:91] Creating Layer conv4_3_norm_mbox_conf_flat
I0311 14:12:13.787645   660 net.cpp:425] conv4_3_norm_mbox_conf_flat <- conv4_3_norm_mbox_conf_perm
I0311 14:12:13.787652   660 net.cpp:399] conv4_3_norm_mbox_conf_flat -> conv4_3_norm_mbox_conf_flat
I0311 14:12:13.787691   660 net.cpp:141] Setting up conv4_3_norm_mbox_conf_flat
I0311 14:12:13.787699   660 net.cpp:148] Top shape: 1 250047 (250047)
I0311 14:12:13.787703   660 net.cpp:156] Memory required for data: 692617348
I0311 14:12:13.787708   660 layer_factory.hpp:77] Creating layer conv4_3_norm_mbox_priorbox
I0311 14:12:13.787719   660 net.cpp:91] Creating Layer conv4_3_norm_mbox_priorbox
I0311 14:12:13.787724   660 net.cpp:425] conv4_3_norm_mbox_priorbox <- conv4_3_norm_conv4_3_norm_0_split_2
I0311 14:12:13.787729   660 net.cpp:425] conv4_3_norm_mbox_priorbox <- data_data_0_split_1
I0311 14:12:13.787735   660 net.cpp:399] conv4_3_norm_mbox_priorbox -> conv4_3_norm_mbox_priorbox
I0311 14:12:13.787777   660 net.cpp:141] Setting up conv4_3_norm_mbox_priorbox
I0311 14:12:13.787786   660 net.cpp:148] Top shape: 1 2 47628 (95256)
I0311 14:12:13.787789   660 net.cpp:156] Memory required for data: 692998372
I0311 14:12:13.787793   660 layer_factory.hpp:77] Creating layer fc7_mbox_loc
I0311 14:12:13.787806   660 net.cpp:91] Creating Layer fc7_mbox_loc
I0311 14:12:13.787811   660 net.cpp:425] fc7_mbox_loc <- fc7_relu7_0_split_1
I0311 14:12:13.787820   660 net.cpp:399] fc7_mbox_loc -> fc7_mbox_loc
I0311 14:12:13.791317   660 net.cpp:141] Setting up fc7_mbox_loc
I0311 14:12:13.791331   660 net.cpp:148] Top shape: 1 24 32 32 (24576)
I0311 14:12:13.791334   660 net.cpp:156] Memory required for data: 693096676
I0311 14:12:13.791342   660 layer_factory.hpp:77] Creating layer fc7_mbox_loc_perm
I0311 14:12:13.791350   660 net.cpp:91] Creating Layer fc7_mbox_loc_perm
I0311 14:12:13.791355   660 net.cpp:425] fc7_mbox_loc_perm <- fc7_mbox_loc
I0311 14:12:13.791362   660 net.cpp:399] fc7_mbox_loc_perm -> fc7_mbox_loc_perm
I0311 14:12:13.791520   660 net.cpp:141] Setting up fc7_mbox_loc_perm
I0311 14:12:13.791530   660 net.cpp:148] Top shape: 1 32 32 24 (24576)
I0311 14:12:13.791534   660 net.cpp:156] Memory required for data: 693194980
I0311 14:12:13.791538   660 layer_factory.hpp:77] Creating layer fc7_mbox_loc_flat
I0311 14:12:13.791548   660 net.cpp:91] Creating Layer fc7_mbox_loc_flat
I0311 14:12:13.791553   660 net.cpp:425] fc7_mbox_loc_flat <- fc7_mbox_loc_perm
I0311 14:12:13.791559   660 net.cpp:399] fc7_mbox_loc_flat -> fc7_mbox_loc_flat
I0311 14:12:13.791599   660 net.cpp:141] Setting up fc7_mbox_loc_flat
I0311 14:12:13.791607   660 net.cpp:148] Top shape: 1 24576 (24576)
I0311 14:12:13.791611   660 net.cpp:156] Memory required for data: 693293284
I0311 14:12:13.791615   660 layer_factory.hpp:77] Creating layer fc7_mbox_conf
I0311 14:12:13.791626   660 net.cpp:91] Creating Layer fc7_mbox_conf
I0311 14:12:13.791642   660 net.cpp:425] fc7_mbox_conf <- fc7_relu7_0_split_2
I0311 14:12:13.791652   660 net.cpp:399] fc7_mbox_conf -> fc7_mbox_conf
I0311 14:12:13.804054   660 net.cpp:141] Setting up fc7_mbox_conf
I0311 14:12:13.804067   660 net.cpp:148] Top shape: 1 126 32 32 (129024)
I0311 14:12:13.804071   660 net.cpp:156] Memory required for data: 693809380
I0311 14:12:13.804078   660 layer_factory.hpp:77] Creating layer fc7_mbox_conf_perm
I0311 14:12:13.804085   660 net.cpp:91] Creating Layer fc7_mbox_conf_perm
I0311 14:12:13.804090   660 net.cpp:425] fc7_mbox_conf_perm <- fc7_mbox_conf
I0311 14:12:13.804100   660 net.cpp:399] fc7_mbox_conf_perm -> fc7_mbox_conf_perm
I0311 14:12:13.804260   660 net.cpp:141] Setting up fc7_mbox_conf_perm
I0311 14:12:13.804270   660 net.cpp:148] Top shape: 1 32 32 126 (129024)
I0311 14:12:13.804275   660 net.cpp:156] Memory required for data: 694325476
I0311 14:12:13.804278   660 layer_factory.hpp:77] Creating layer fc7_mbox_conf_flat
I0311 14:12:13.804287   660 net.cpp:91] Creating Layer fc7_mbox_conf_flat
I0311 14:12:13.804292   660 net.cpp:425] fc7_mbox_conf_flat <- fc7_mbox_conf_perm
I0311 14:12:13.804299   660 net.cpp:399] fc7_mbox_conf_flat -> fc7_mbox_conf_flat
I0311 14:12:13.804338   660 net.cpp:141] Setting up fc7_mbox_conf_flat
I0311 14:12:13.804347   660 net.cpp:148] Top shape: 1 129024 (129024)
I0311 14:12:13.804352   660 net.cpp:156] Memory required for data: 694841572
I0311 14:12:13.804354   660 layer_factory.hpp:77] Creating layer fc7_mbox_priorbox
I0311 14:12:13.804364   660 net.cpp:91] Creating Layer fc7_mbox_priorbox
I0311 14:12:13.804369   660 net.cpp:425] fc7_mbox_priorbox <- fc7_relu7_0_split_3
I0311 14:12:13.804375   660 net.cpp:425] fc7_mbox_priorbox <- data_data_0_split_2
I0311 14:12:13.804383   660 net.cpp:399] fc7_mbox_priorbox -> fc7_mbox_priorbox
I0311 14:12:13.804425   660 net.cpp:141] Setting up fc7_mbox_priorbox
I0311 14:12:13.804432   660 net.cpp:148] Top shape: 1 2 24576 (49152)
I0311 14:12:13.804436   660 net.cpp:156] Memory required for data: 695038180
I0311 14:12:13.804440   660 layer_factory.hpp:77] Creating layer conv6_2_mbox_loc
I0311 14:12:13.804453   660 net.cpp:91] Creating Layer conv6_2_mbox_loc
I0311 14:12:13.804458   660 net.cpp:425] conv6_2_mbox_loc <- conv6_2_conv6_2_relu_0_split_1
I0311 14:12:13.804468   660 net.cpp:399] conv6_2_mbox_loc -> conv6_2_mbox_loc
I0311 14:12:13.806859   660 net.cpp:141] Setting up conv6_2_mbox_loc
I0311 14:12:13.806872   660 net.cpp:148] Top shape: 1 24 16 16 (6144)
I0311 14:12:13.806876   660 net.cpp:156] Memory required for data: 695062756
I0311 14:12:13.806885   660 layer_factory.hpp:77] Creating layer conv6_2_mbox_loc_perm
I0311 14:12:13.806891   660 net.cpp:91] Creating Layer conv6_2_mbox_loc_perm
I0311 14:12:13.806895   660 net.cpp:425] conv6_2_mbox_loc_perm <- conv6_2_mbox_loc
I0311 14:12:13.806902   660 net.cpp:399] conv6_2_mbox_loc_perm -> conv6_2_mbox_loc_perm
I0311 14:12:13.807067   660 net.cpp:141] Setting up conv6_2_mbox_loc_perm
I0311 14:12:13.807076   660 net.cpp:148] Top shape: 1 16 16 24 (6144)
I0311 14:12:13.807080   660 net.cpp:156] Memory required for data: 695087332
I0311 14:12:13.807085   660 layer_factory.hpp:77] Creating layer conv6_2_mbox_loc_flat
I0311 14:12:13.807091   660 net.cpp:91] Creating Layer conv6_2_mbox_loc_flat
I0311 14:12:13.807096   660 net.cpp:425] conv6_2_mbox_loc_flat <- conv6_2_mbox_loc_perm
I0311 14:12:13.807106   660 net.cpp:399] conv6_2_mbox_loc_flat -> conv6_2_mbox_loc_flat
I0311 14:12:13.807145   660 net.cpp:141] Setting up conv6_2_mbox_loc_flat
I0311 14:12:13.807153   660 net.cpp:148] Top shape: 1 6144 (6144)
I0311 14:12:13.807157   660 net.cpp:156] Memory required for data: 695111908
I0311 14:12:13.807162   660 layer_factory.hpp:77] Creating layer conv6_2_mbox_conf
I0311 14:12:13.807173   660 net.cpp:91] Creating Layer conv6_2_mbox_conf
I0311 14:12:13.807178   660 net.cpp:425] conv6_2_mbox_conf <- conv6_2_conv6_2_relu_0_split_2
I0311 14:12:13.807188   660 net.cpp:399] conv6_2_mbox_conf -> conv6_2_mbox_conf
I0311 14:12:13.814277   660 net.cpp:141] Setting up conv6_2_mbox_conf
I0311 14:12:13.814296   660 net.cpp:148] Top shape: 1 126 16 16 (32256)
I0311 14:12:13.814301   660 net.cpp:156] Memory required for data: 695240932
I0311 14:12:13.814307   660 layer_factory.hpp:77] Creating layer conv6_2_mbox_conf_perm
I0311 14:12:13.814316   660 net.cpp:91] Creating Layer conv6_2_mbox_conf_perm
I0311 14:12:13.814319   660 net.cpp:425] conv6_2_mbox_conf_perm <- conv6_2_mbox_conf
I0311 14:12:13.814328   660 net.cpp:399] conv6_2_mbox_conf_perm -> conv6_2_mbox_conf_perm
I0311 14:12:13.814489   660 net.cpp:141] Setting up conv6_2_mbox_conf_perm
I0311 14:12:13.814499   660 net.cpp:148] Top shape: 1 16 16 126 (32256)
I0311 14:12:13.814503   660 net.cpp:156] Memory required for data: 695369956
I0311 14:12:13.814507   660 layer_factory.hpp:77] Creating layer conv6_2_mbox_conf_flat
I0311 14:12:13.814517   660 net.cpp:91] Creating Layer conv6_2_mbox_conf_flat
I0311 14:12:13.814522   660 net.cpp:425] conv6_2_mbox_conf_flat <- conv6_2_mbox_conf_perm
I0311 14:12:13.814529   660 net.cpp:399] conv6_2_mbox_conf_flat -> conv6_2_mbox_conf_flat
I0311 14:12:13.814569   660 net.cpp:141] Setting up conv6_2_mbox_conf_flat
I0311 14:12:13.814579   660 net.cpp:148] Top shape: 1 32256 (32256)
I0311 14:12:13.814582   660 net.cpp:156] Memory required for data: 695498980
I0311 14:12:13.814586   660 layer_factory.hpp:77] Creating layer conv6_2_mbox_priorbox
I0311 14:12:13.814594   660 net.cpp:91] Creating Layer conv6_2_mbox_priorbox
I0311 14:12:13.814599   660 net.cpp:425] conv6_2_mbox_priorbox <- conv6_2_conv6_2_relu_0_split_3
I0311 14:12:13.814604   660 net.cpp:425] conv6_2_mbox_priorbox <- data_data_0_split_3
I0311 14:12:13.814613   660 net.cpp:399] conv6_2_mbox_priorbox -> conv6_2_mbox_priorbox
I0311 14:12:13.814656   660 net.cpp:141] Setting up conv6_2_mbox_priorbox
I0311 14:12:13.814664   660 net.cpp:148] Top shape: 1 2 6144 (12288)
I0311 14:12:13.814668   660 net.cpp:156] Memory required for data: 695548132
I0311 14:12:13.814671   660 layer_factory.hpp:77] Creating layer conv7_2_mbox_loc
I0311 14:12:13.814683   660 net.cpp:91] Creating Layer conv7_2_mbox_loc
I0311 14:12:13.814689   660 net.cpp:425] conv7_2_mbox_loc <- conv7_2_conv7_2_relu_0_split_1
I0311 14:12:13.814700   660 net.cpp:399] conv7_2_mbox_loc -> conv7_2_mbox_loc
I0311 14:12:13.816529   660 net.cpp:141] Setting up conv7_2_mbox_loc
I0311 14:12:13.816541   660 net.cpp:148] Top shape: 1 24 8 8 (1536)
I0311 14:12:13.816545   660 net.cpp:156] Memory required for data: 695554276
I0311 14:12:13.816552   660 layer_factory.hpp:77] Creating layer conv7_2_mbox_loc_perm
I0311 14:12:13.816560   660 net.cpp:91] Creating Layer conv7_2_mbox_loc_perm
I0311 14:12:13.816565   660 net.cpp:425] conv7_2_mbox_loc_perm <- conv7_2_mbox_loc
I0311 14:12:13.816573   660 net.cpp:399] conv7_2_mbox_loc_perm -> conv7_2_mbox_loc_perm
I0311 14:12:13.816740   660 net.cpp:141] Setting up conv7_2_mbox_loc_perm
I0311 14:12:13.816748   660 net.cpp:148] Top shape: 1 8 8 24 (1536)
I0311 14:12:13.816752   660 net.cpp:156] Memory required for data: 695560420
I0311 14:12:13.816756   660 layer_factory.hpp:77] Creating layer conv7_2_mbox_loc_flat
I0311 14:12:13.816763   660 net.cpp:91] Creating Layer conv7_2_mbox_loc_flat
I0311 14:12:13.816768   660 net.cpp:425] conv7_2_mbox_loc_flat <- conv7_2_mbox_loc_perm
I0311 14:12:13.816777   660 net.cpp:399] conv7_2_mbox_loc_flat -> conv7_2_mbox_loc_flat
I0311 14:12:13.816814   660 net.cpp:141] Setting up conv7_2_mbox_loc_flat
I0311 14:12:13.816823   660 net.cpp:148] Top shape: 1 1536 (1536)
I0311 14:12:13.816828   660 net.cpp:156] Memory required for data: 695566564
I0311 14:12:13.816830   660 layer_factory.hpp:77] Creating layer conv7_2_mbox_conf
I0311 14:12:13.816854   660 net.cpp:91] Creating Layer conv7_2_mbox_conf
I0311 14:12:13.816859   660 net.cpp:425] conv7_2_mbox_conf <- conv7_2_conv7_2_relu_0_split_2
I0311 14:12:13.816867   660 net.cpp:399] conv7_2_mbox_conf -> conv7_2_mbox_conf
I0311 14:12:13.821216   660 net.cpp:141] Setting up conv7_2_mbox_conf
I0311 14:12:13.821229   660 net.cpp:148] Top shape: 1 126 8 8 (8064)
I0311 14:12:13.821233   660 net.cpp:156] Memory required for data: 695598820
I0311 14:12:13.821247   660 layer_factory.hpp:77] Creating layer conv7_2_mbox_conf_perm
I0311 14:12:13.821257   660 net.cpp:91] Creating Layer conv7_2_mbox_conf_perm
I0311 14:12:13.821262   660 net.cpp:425] conv7_2_mbox_conf_perm <- conv7_2_mbox_conf
I0311 14:12:13.821269   660 net.cpp:399] conv7_2_mbox_conf_perm -> conv7_2_mbox_conf_perm
I0311 14:12:13.821437   660 net.cpp:141] Setting up conv7_2_mbox_conf_perm
I0311 14:12:13.821446   660 net.cpp:148] Top shape: 1 8 8 126 (8064)
I0311 14:12:13.821450   660 net.cpp:156] Memory required for data: 695631076
I0311 14:12:13.821455   660 layer_factory.hpp:77] Creating layer conv7_2_mbox_conf_flat
I0311 14:12:13.821462   660 net.cpp:91] Creating Layer conv7_2_mbox_conf_flat
I0311 14:12:13.821467   660 net.cpp:425] conv7_2_mbox_conf_flat <- conv7_2_mbox_conf_perm
I0311 14:12:13.821475   660 net.cpp:399] conv7_2_mbox_conf_flat -> conv7_2_mbox_conf_flat
I0311 14:12:13.821516   660 net.cpp:141] Setting up conv7_2_mbox_conf_flat
I0311 14:12:13.821523   660 net.cpp:148] Top shape: 1 8064 (8064)
I0311 14:12:13.821529   660 net.cpp:156] Memory required for data: 695663332
I0311 14:12:13.821534   660 layer_factory.hpp:77] Creating layer conv7_2_mbox_priorbox
I0311 14:12:13.821542   660 net.cpp:91] Creating Layer conv7_2_mbox_priorbox
I0311 14:12:13.821547   660 net.cpp:425] conv7_2_mbox_priorbox <- conv7_2_conv7_2_relu_0_split_3
I0311 14:12:13.821552   660 net.cpp:425] conv7_2_mbox_priorbox <- data_data_0_split_4
I0311 14:12:13.821559   660 net.cpp:399] conv7_2_mbox_priorbox -> conv7_2_mbox_priorbox
I0311 14:12:13.821601   660 net.cpp:141] Setting up conv7_2_mbox_priorbox
I0311 14:12:13.821609   660 net.cpp:148] Top shape: 1 2 1536 (3072)
I0311 14:12:13.821614   660 net.cpp:156] Memory required for data: 695675620
I0311 14:12:13.821617   660 layer_factory.hpp:77] Creating layer conv8_2_mbox_loc
I0311 14:12:13.821630   660 net.cpp:91] Creating Layer conv8_2_mbox_loc
I0311 14:12:13.821635   660 net.cpp:425] conv8_2_mbox_loc <- conv8_2_conv8_2_relu_0_split_1
I0311 14:12:13.821645   660 net.cpp:399] conv8_2_mbox_loc -> conv8_2_mbox_loc
I0311 14:12:13.824626   660 net.cpp:141] Setting up conv8_2_mbox_loc
I0311 14:12:13.824640   660 net.cpp:148] Top shape: 1 24 4 4 (384)
I0311 14:12:13.824642   660 net.cpp:156] Memory required for data: 695677156
I0311 14:12:13.824666   660 layer_factory.hpp:77] Creating layer conv8_2_mbox_loc_perm
I0311 14:12:13.824676   660 net.cpp:91] Creating Layer conv8_2_mbox_loc_perm
I0311 14:12:13.824681   660 net.cpp:425] conv8_2_mbox_loc_perm <- conv8_2_mbox_loc
I0311 14:12:13.824688   660 net.cpp:399] conv8_2_mbox_loc_perm -> conv8_2_mbox_loc_perm
I0311 14:12:13.824869   660 net.cpp:141] Setting up conv8_2_mbox_loc_perm
I0311 14:12:13.824882   660 net.cpp:148] Top shape: 1 4 4 24 (384)
I0311 14:12:13.824887   660 net.cpp:156] Memory required for data: 695678692
I0311 14:12:13.824890   660 layer_factory.hpp:77] Creating layer conv8_2_mbox_loc_flat
I0311 14:12:13.824901   660 net.cpp:91] Creating Layer conv8_2_mbox_loc_flat
I0311 14:12:13.824906   660 net.cpp:425] conv8_2_mbox_loc_flat <- conv8_2_mbox_loc_perm
I0311 14:12:13.824913   660 net.cpp:399] conv8_2_mbox_loc_flat -> conv8_2_mbox_loc_flat
I0311 14:12:13.824957   660 net.cpp:141] Setting up conv8_2_mbox_loc_flat
I0311 14:12:13.824965   660 net.cpp:148] Top shape: 1 384 (384)
I0311 14:12:13.824970   660 net.cpp:156] Memory required for data: 695680228
I0311 14:12:13.824972   660 layer_factory.hpp:77] Creating layer conv8_2_mbox_conf
I0311 14:12:13.824986   660 net.cpp:91] Creating Layer conv8_2_mbox_conf
I0311 14:12:13.824992   660 net.cpp:425] conv8_2_mbox_conf <- conv8_2_conv8_2_relu_0_split_2
I0311 14:12:13.825001   660 net.cpp:399] conv8_2_mbox_conf -> conv8_2_mbox_conf
I0311 14:12:13.829258   660 net.cpp:141] Setting up conv8_2_mbox_conf
I0311 14:12:13.829272   660 net.cpp:148] Top shape: 1 126 4 4 (2016)
I0311 14:12:13.829275   660 net.cpp:156] Memory required for data: 695688292
I0311 14:12:13.829282   660 layer_factory.hpp:77] Creating layer conv8_2_mbox_conf_perm
I0311 14:12:13.829295   660 net.cpp:91] Creating Layer conv8_2_mbox_conf_perm
I0311 14:12:13.829300   660 net.cpp:425] conv8_2_mbox_conf_perm <- conv8_2_mbox_conf
I0311 14:12:13.829308   660 net.cpp:399] conv8_2_mbox_conf_perm -> conv8_2_mbox_conf_perm
I0311 14:12:13.829479   660 net.cpp:141] Setting up conv8_2_mbox_conf_perm
I0311 14:12:13.829488   660 net.cpp:148] Top shape: 1 4 4 126 (2016)
I0311 14:12:13.829493   660 net.cpp:156] Memory required for data: 695696356
I0311 14:12:13.829496   660 layer_factory.hpp:77] Creating layer conv8_2_mbox_conf_flat
I0311 14:12:13.829504   660 net.cpp:91] Creating Layer conv8_2_mbox_conf_flat
I0311 14:12:13.829509   660 net.cpp:425] conv8_2_mbox_conf_flat <- conv8_2_mbox_conf_perm
I0311 14:12:13.829517   660 net.cpp:399] conv8_2_mbox_conf_flat -> conv8_2_mbox_conf_flat
I0311 14:12:13.829556   660 net.cpp:141] Setting up conv8_2_mbox_conf_flat
I0311 14:12:13.829565   660 net.cpp:148] Top shape: 1 2016 (2016)
I0311 14:12:13.829568   660 net.cpp:156] Memory required for data: 695704420
I0311 14:12:13.829572   660 layer_factory.hpp:77] Creating layer conv8_2_mbox_priorbox
I0311 14:12:13.829582   660 net.cpp:91] Creating Layer conv8_2_mbox_priorbox
I0311 14:12:13.829587   660 net.cpp:425] conv8_2_mbox_priorbox <- conv8_2_conv8_2_relu_0_split_3
I0311 14:12:13.829594   660 net.cpp:425] conv8_2_mbox_priorbox <- data_data_0_split_5
I0311 14:12:13.829601   660 net.cpp:399] conv8_2_mbox_priorbox -> conv8_2_mbox_priorbox
I0311 14:12:13.829643   660 net.cpp:141] Setting up conv8_2_mbox_priorbox
I0311 14:12:13.829650   660 net.cpp:148] Top shape: 1 2 384 (768)
I0311 14:12:13.829654   660 net.cpp:156] Memory required for data: 695707492
I0311 14:12:13.829658   660 layer_factory.hpp:77] Creating layer conv9_2_mbox_loc
I0311 14:12:13.829673   660 net.cpp:91] Creating Layer conv9_2_mbox_loc
I0311 14:12:13.829679   660 net.cpp:425] conv9_2_mbox_loc <- conv9_2_conv9_2_relu_0_split_1
I0311 14:12:13.829686   660 net.cpp:399] conv9_2_mbox_loc -> conv9_2_mbox_loc
I0311 14:12:13.831483   660 net.cpp:141] Setting up conv9_2_mbox_loc
I0311 14:12:13.831496   660 net.cpp:148] Top shape: 1 24 2 2 (96)
I0311 14:12:13.831501   660 net.cpp:156] Memory required for data: 695707876
I0311 14:12:13.831507   660 layer_factory.hpp:77] Creating layer conv9_2_mbox_loc_perm
I0311 14:12:13.831516   660 net.cpp:91] Creating Layer conv9_2_mbox_loc_perm
I0311 14:12:13.831521   660 net.cpp:425] conv9_2_mbox_loc_perm <- conv9_2_mbox_loc
I0311 14:12:13.831527   660 net.cpp:399] conv9_2_mbox_loc_perm -> conv9_2_mbox_loc_perm
I0311 14:12:13.831693   660 net.cpp:141] Setting up conv9_2_mbox_loc_perm
I0311 14:12:13.831702   660 net.cpp:148] Top shape: 1 2 2 24 (96)
I0311 14:12:13.831707   660 net.cpp:156] Memory required for data: 695708260
I0311 14:12:13.831710   660 layer_factory.hpp:77] Creating layer conv9_2_mbox_loc_flat
I0311 14:12:13.831717   660 net.cpp:91] Creating Layer conv9_2_mbox_loc_flat
I0311 14:12:13.831722   660 net.cpp:425] conv9_2_mbox_loc_flat <- conv9_2_mbox_loc_perm
I0311 14:12:13.831729   660 net.cpp:399] conv9_2_mbox_loc_flat -> conv9_2_mbox_loc_flat
I0311 14:12:13.831769   660 net.cpp:141] Setting up conv9_2_mbox_loc_flat
I0311 14:12:13.831780   660 net.cpp:148] Top shape: 1 96 (96)
I0311 14:12:13.831784   660 net.cpp:156] Memory required for data: 695708644
I0311 14:12:13.831787   660 layer_factory.hpp:77] Creating layer conv9_2_mbox_conf
I0311 14:12:13.831799   660 net.cpp:91] Creating Layer conv9_2_mbox_conf
I0311 14:12:13.831804   660 net.cpp:425] conv9_2_mbox_conf <- conv9_2_conv9_2_relu_0_split_2
I0311 14:12:13.831812   660 net.cpp:399] conv9_2_mbox_conf -> conv9_2_mbox_conf
I0311 14:12:13.835943   660 net.cpp:141] Setting up conv9_2_mbox_conf
I0311 14:12:13.835955   660 net.cpp:148] Top shape: 1 126 2 2 (504)
I0311 14:12:13.835959   660 net.cpp:156] Memory required for data: 695710660
I0311 14:12:13.835966   660 layer_factory.hpp:77] Creating layer conv9_2_mbox_conf_perm
I0311 14:12:13.835974   660 net.cpp:91] Creating Layer conv9_2_mbox_conf_perm
I0311 14:12:13.835981   660 net.cpp:425] conv9_2_mbox_conf_perm <- conv9_2_mbox_conf
I0311 14:12:13.835994   660 net.cpp:399] conv9_2_mbox_conf_perm -> conv9_2_mbox_conf_perm
I0311 14:12:13.836166   660 net.cpp:141] Setting up conv9_2_mbox_conf_perm
I0311 14:12:13.836175   660 net.cpp:148] Top shape: 1 2 2 126 (504)
I0311 14:12:13.836180   660 net.cpp:156] Memory required for data: 695712676
I0311 14:12:13.836184   660 layer_factory.hpp:77] Creating layer conv9_2_mbox_conf_flat
I0311 14:12:13.836191   660 net.cpp:91] Creating Layer conv9_2_mbox_conf_flat
I0311 14:12:13.836196   660 net.cpp:425] conv9_2_mbox_conf_flat <- conv9_2_mbox_conf_perm
I0311 14:12:13.836202   660 net.cpp:399] conv9_2_mbox_conf_flat -> conv9_2_mbox_conf_flat
I0311 14:12:13.836244   660 net.cpp:141] Setting up conv9_2_mbox_conf_flat
I0311 14:12:13.836253   660 net.cpp:148] Top shape: 1 504 (504)
I0311 14:12:13.836257   660 net.cpp:156] Memory required for data: 695714692
I0311 14:12:13.836261   660 layer_factory.hpp:77] Creating layer conv9_2_mbox_priorbox
I0311 14:12:13.836271   660 net.cpp:91] Creating Layer conv9_2_mbox_priorbox
I0311 14:12:13.836275   660 net.cpp:425] conv9_2_mbox_priorbox <- conv9_2_conv9_2_relu_0_split_3
I0311 14:12:13.836282   660 net.cpp:425] conv9_2_mbox_priorbox <- data_data_0_split_6
I0311 14:12:13.836288   660 net.cpp:399] conv9_2_mbox_priorbox -> conv9_2_mbox_priorbox
I0311 14:12:13.836330   660 net.cpp:141] Setting up conv9_2_mbox_priorbox
I0311 14:12:13.836339   660 net.cpp:148] Top shape: 1 2 96 (192)
I0311 14:12:13.836344   660 net.cpp:156] Memory required for data: 695715460
I0311 14:12:13.836346   660 layer_factory.hpp:77] Creating layer pool6_mbox_loc
I0311 14:12:13.836359   660 net.cpp:91] Creating Layer pool6_mbox_loc
I0311 14:12:13.836365   660 net.cpp:425] pool6_mbox_loc <- pool6_pool6_0_split_0
I0311 14:12:13.836375   660 net.cpp:399] pool6_mbox_loc -> pool6_mbox_loc
I0311 14:12:13.838157   660 net.cpp:141] Setting up pool6_mbox_loc
I0311 14:12:13.838170   660 net.cpp:148] Top shape: 1 24 1 1 (24)
I0311 14:12:13.838173   660 net.cpp:156] Memory required for data: 695715556
I0311 14:12:13.838181   660 layer_factory.hpp:77] Creating layer pool6_mbox_loc_perm
I0311 14:12:13.838187   660 net.cpp:91] Creating Layer pool6_mbox_loc_perm
I0311 14:12:13.838192   660 net.cpp:425] pool6_mbox_loc_perm <- pool6_mbox_loc
I0311 14:12:13.838201   660 net.cpp:399] pool6_mbox_loc_perm -> pool6_mbox_loc_perm
I0311 14:12:13.838372   660 net.cpp:141] Setting up pool6_mbox_loc_perm
I0311 14:12:13.838382   660 net.cpp:148] Top shape: 1 1 1 24 (24)
I0311 14:12:13.838385   660 net.cpp:156] Memory required for data: 695715652
I0311 14:12:13.838389   660 layer_factory.hpp:77] Creating layer pool6_mbox_loc_flat
I0311 14:12:13.838404   660 net.cpp:91] Creating Layer pool6_mbox_loc_flat
I0311 14:12:13.838409   660 net.cpp:425] pool6_mbox_loc_flat <- pool6_mbox_loc_perm
I0311 14:12:13.838417   660 net.cpp:399] pool6_mbox_loc_flat -> pool6_mbox_loc_flat
I0311 14:12:13.838459   660 net.cpp:141] Setting up pool6_mbox_loc_flat
I0311 14:12:13.838466   660 net.cpp:148] Top shape: 1 24 (24)
I0311 14:12:13.838470   660 net.cpp:156] Memory required for data: 695715748
I0311 14:12:13.838474   660 layer_factory.hpp:77] Creating layer pool6_mbox_conf
I0311 14:12:13.838487   660 net.cpp:91] Creating Layer pool6_mbox_conf
I0311 14:12:13.838492   660 net.cpp:425] pool6_mbox_conf <- pool6_pool6_0_split_1
I0311 14:12:13.838500   660 net.cpp:399] pool6_mbox_conf -> pool6_mbox_conf
I0311 14:12:13.842578   660 net.cpp:141] Setting up pool6_mbox_conf
I0311 14:12:13.842591   660 net.cpp:148] Top shape: 1 126 1 1 (126)
I0311 14:12:13.842594   660 net.cpp:156] Memory required for data: 695716252
I0311 14:12:13.842602   660 layer_factory.hpp:77] Creating layer pool6_mbox_conf_perm
I0311 14:12:13.842609   660 net.cpp:91] Creating Layer pool6_mbox_conf_perm
I0311 14:12:13.842613   660 net.cpp:425] pool6_mbox_conf_perm <- pool6_mbox_conf
I0311 14:12:13.842622   660 net.cpp:399] pool6_mbox_conf_perm -> pool6_mbox_conf_perm
I0311 14:12:13.842797   660 net.cpp:141] Setting up pool6_mbox_conf_perm
I0311 14:12:13.842813   660 net.cpp:148] Top shape: 1 1 1 126 (126)
I0311 14:12:13.842816   660 net.cpp:156] Memory required for data: 695716756
I0311 14:12:13.842820   660 layer_factory.hpp:77] Creating layer pool6_mbox_conf_flat
I0311 14:12:13.842828   660 net.cpp:91] Creating Layer pool6_mbox_conf_flat
I0311 14:12:13.842833   660 net.cpp:425] pool6_mbox_conf_flat <- pool6_mbox_conf_perm
I0311 14:12:13.842841   660 net.cpp:399] pool6_mbox_conf_flat -> pool6_mbox_conf_flat
I0311 14:12:13.842882   660 net.cpp:141] Setting up pool6_mbox_conf_flat
I0311 14:12:13.842890   660 net.cpp:148] Top shape: 1 126 (126)
I0311 14:12:13.842895   660 net.cpp:156] Memory required for data: 695717260
I0311 14:12:13.842898   660 layer_factory.hpp:77] Creating layer pool6_mbox_priorbox
I0311 14:12:13.842910   660 net.cpp:91] Creating Layer pool6_mbox_priorbox
I0311 14:12:13.842914   660 net.cpp:425] pool6_mbox_priorbox <- pool6_pool6_0_split_2
I0311 14:12:13.842921   660 net.cpp:425] pool6_mbox_priorbox <- data_data_0_split_7
I0311 14:12:13.842926   660 net.cpp:399] pool6_mbox_priorbox -> pool6_mbox_priorbox
I0311 14:12:13.842977   660 net.cpp:141] Setting up pool6_mbox_priorbox
I0311 14:12:13.842985   660 net.cpp:148] Top shape: 1 2 24 (48)
I0311 14:12:13.842988   660 net.cpp:156] Memory required for data: 695717452
I0311 14:12:13.842991   660 layer_factory.hpp:77] Creating layer mbox_loc
I0311 14:12:13.843000   660 net.cpp:91] Creating Layer mbox_loc
I0311 14:12:13.843006   660 net.cpp:425] mbox_loc <- conv4_3_norm_mbox_loc_flat
I0311 14:12:13.843015   660 net.cpp:425] mbox_loc <- fc7_mbox_loc_flat
I0311 14:12:13.843021   660 net.cpp:425] mbox_loc <- conv6_2_mbox_loc_flat
I0311 14:12:13.843026   660 net.cpp:425] mbox_loc <- conv7_2_mbox_loc_flat
I0311 14:12:13.843031   660 net.cpp:425] mbox_loc <- conv8_2_mbox_loc_flat
I0311 14:12:13.843036   660 net.cpp:425] mbox_loc <- conv9_2_mbox_loc_flat
I0311 14:12:13.843041   660 net.cpp:425] mbox_loc <- pool6_mbox_loc_flat
I0311 14:12:13.843049   660 net.cpp:399] mbox_loc -> mbox_loc
I0311 14:12:13.843093   660 net.cpp:141] Setting up mbox_loc
I0311 14:12:13.843102   660 net.cpp:148] Top shape: 1 80388 (80388)
I0311 14:12:13.843106   660 net.cpp:156] Memory required for data: 696039004
I0311 14:12:13.843109   660 layer_factory.hpp:77] Creating layer mbox_conf
I0311 14:12:13.843117   660 net.cpp:91] Creating Layer mbox_conf
I0311 14:12:13.843122   660 net.cpp:425] mbox_conf <- conv4_3_norm_mbox_conf_flat
I0311 14:12:13.843128   660 net.cpp:425] mbox_conf <- fc7_mbox_conf_flat
I0311 14:12:13.843134   660 net.cpp:425] mbox_conf <- conv6_2_mbox_conf_flat
I0311 14:12:13.843139   660 net.cpp:425] mbox_conf <- conv7_2_mbox_conf_flat
I0311 14:12:13.843144   660 net.cpp:425] mbox_conf <- conv8_2_mbox_conf_flat
I0311 14:12:13.843149   660 net.cpp:425] mbox_conf <- conv9_2_mbox_conf_flat
I0311 14:12:13.843154   660 net.cpp:425] mbox_conf <- pool6_mbox_conf_flat
I0311 14:12:13.843163   660 net.cpp:399] mbox_conf -> mbox_conf
I0311 14:12:13.843204   660 net.cpp:141] Setting up mbox_conf
I0311 14:12:13.843212   660 net.cpp:148] Top shape: 1 422037 (422037)
I0311 14:12:13.843216   660 net.cpp:156] Memory required for data: 697727152
I0311 14:12:13.843220   660 layer_factory.hpp:77] Creating layer mbox_priorbox
I0311 14:12:13.843227   660 net.cpp:91] Creating Layer mbox_priorbox
I0311 14:12:13.843233   660 net.cpp:425] mbox_priorbox <- conv4_3_norm_mbox_priorbox
I0311 14:12:13.843238   660 net.cpp:425] mbox_priorbox <- fc7_mbox_priorbox
I0311 14:12:13.843245   660 net.cpp:425] mbox_priorbox <- conv6_2_mbox_priorbox
I0311 14:12:13.843250   660 net.cpp:425] mbox_priorbox <- conv7_2_mbox_priorbox
I0311 14:12:13.843255   660 net.cpp:425] mbox_priorbox <- conv8_2_mbox_priorbox
I0311 14:12:13.843260   660 net.cpp:425] mbox_priorbox <- conv9_2_mbox_priorbox
I0311 14:12:13.843264   660 net.cpp:425] mbox_priorbox <- pool6_mbox_priorbox
I0311 14:12:13.843269   660 net.cpp:399] mbox_priorbox -> mbox_priorbox
I0311 14:12:13.843312   660 net.cpp:141] Setting up mbox_priorbox
I0311 14:12:13.843320   660 net.cpp:148] Top shape: 1 2 80388 (160776)
I0311 14:12:13.843329   660 net.cpp:156] Memory required for data: 698370256
I0311 14:12:13.843333   660 layer_factory.hpp:77] Creating layer mbox_conf_reshape
I0311 14:12:13.843348   660 net.cpp:91] Creating Layer mbox_conf_reshape
I0311 14:12:13.843353   660 net.cpp:425] mbox_conf_reshape <- mbox_conf
I0311 14:12:13.843360   660 net.cpp:399] mbox_conf_reshape -> mbox_conf_reshape
I0311 14:12:13.843420   660 net.cpp:141] Setting up mbox_conf_reshape
I0311 14:12:13.843430   660 net.cpp:148] Top shape: 1 20097 21 (422037)
I0311 14:12:13.843433   660 net.cpp:156] Memory required for data: 700058404
I0311 14:12:13.843437   660 layer_factory.hpp:77] Creating layer mbox_conf_softmax
I0311 14:12:13.843446   660 net.cpp:91] Creating Layer mbox_conf_softmax
I0311 14:12:13.843451   660 net.cpp:425] mbox_conf_softmax <- mbox_conf_reshape
I0311 14:12:13.843459   660 net.cpp:399] mbox_conf_softmax -> mbox_conf_softmax
I0311 14:12:13.843750   660 net.cpp:141] Setting up mbox_conf_softmax
I0311 14:12:13.843760   660 net.cpp:148] Top shape: 1 20097 21 (422037)
I0311 14:12:13.843765   660 net.cpp:156] Memory required for data: 701746552
I0311 14:12:13.843768   660 layer_factory.hpp:77] Creating layer mbox_conf_flatten
I0311 14:12:13.843775   660 net.cpp:91] Creating Layer mbox_conf_flatten
I0311 14:12:13.843780   660 net.cpp:425] mbox_conf_flatten <- mbox_conf_softmax
I0311 14:12:13.843788   660 net.cpp:399] mbox_conf_flatten -> mbox_conf_flatten
I0311 14:12:13.843835   660 net.cpp:141] Setting up mbox_conf_flatten
I0311 14:12:13.843847   660 net.cpp:148] Top shape: 1 422037 (422037)
I0311 14:12:13.843852   660 net.cpp:156] Memory required for data: 703434700
I0311 14:12:13.843855   660 layer_factory.hpp:77] Creating layer detection_out
I0311 14:12:13.843868   660 net.cpp:91] Creating Layer detection_out
I0311 14:12:13.843874   660 net.cpp:425] detection_out <- mbox_loc
I0311 14:12:13.843879   660 net.cpp:425] detection_out <- mbox_conf_flatten
I0311 14:12:13.843884   660 net.cpp:425] detection_out <- mbox_priorbox
I0311 14:12:13.843897   660 net.cpp:399] detection_out -> detection_out
I0311 14:12:14.036939   660 net.cpp:141] Setting up detection_out
I0311 14:12:14.036954   660 net.cpp:148] Top shape: 1 1 1 7 (7)
I0311 14:12:14.036958   660 net.cpp:156] Memory required for data: 703434728
I0311 14:12:14.036962   660 layer_factory.hpp:77] Creating layer detection_eval
I0311 14:12:14.036972   660 net.cpp:91] Creating Layer detection_eval
I0311 14:12:14.036977   660 net.cpp:425] detection_eval <- detection_out
I0311 14:12:14.036981   660 net.cpp:425] detection_eval <- label
I0311 14:12:14.036988   660 net.cpp:399] detection_eval -> detection_eval
I0311 14:12:14.038269   660 net.cpp:141] Setting up detection_eval
I0311 14:12:14.038282   660 net.cpp:148] Top shape: 1 1 21 5 (105)
I0311 14:12:14.038286   660 net.cpp:156] Memory required for data: 703435148
I0311 14:12:14.038290   660 net.cpp:219] detection_eval does not need backward computation.
I0311 14:12:14.038295   660 net.cpp:219] detection_out does not need backward computation.
I0311 14:12:14.038298   660 net.cpp:219] mbox_conf_flatten does not need backward computation.
I0311 14:12:14.038302   660 net.cpp:219] mbox_conf_softmax does not need backward computation.
…
